{"format": "graph-model", "generatedBy": "2.16.1", "convertedBy": "TensorFlow.js Converter v4.20.0", "signature": {"inputs": {"input_ids:0": {"name": "input_ids:0", "dtype": "DT_INT32", "tensorShape": {"dim": [{"size": "-1"}, {"size": "-1"}]}}, "attention_mask:0": {"name": "attention_mask:0", "dtype": "DT_INT32", "tensorShape": {"dim": [{"size": "-1"}, {"size": "-1"}]}}}, "outputs": {"logits": {"name": "Identity:0", "dtype": "DT_FLOAT", "tensorShape": {"dim": [{"size": "-1"}, {"size": "2"}]}}}}, "modelTopology": {"node": [{"name": "StatefulPartitionedCall/tf_distil_bert_for_sequence_classification/distilbert/transformer/layer_._5/output_layer_norm/batchnorm/ReadVariableOp", "op": "Const", "attr": {"dtype": {"type": "DT_FLOAT"}, "value": {"tensor": {"dtype": "DT_FLOAT", "tensorShape": {"dim": [{"size": "768"}]}}}}}, {"name": "StatefulPartitionedCall/tf_distil_bert_for_sequence_classification/distilbert/transformer/layer_._5/ffn/lin2/Tensordot/Const", "op": "Const", "attr": {"dtype": {"type": "DT_INT32"}, "value": {"tensor": {"dtype": "DT_INT32", "tensorShape": {"dim": [{"size": "1"}]}}}}}, {"name": "StatefulPartitionedCall/tf_distil_bert_for_sequence_classification/distilbert/transformer/layer_._5/ffn/lin2/Tensordot/axes", "op": "Const", "attr": {"dtype": {"type": "DT_INT32"}, "value": {"tensor": {"dtype": "DT_INT32", "tensorShape": {"dim": [{"size": "1"}]}}}}}, {"name": "StatefulPartitionedCall/tf_distil_bert_for_sequence_classification/distilbert/transformer/layer_._5/ffn/lin2/Tensordot/GatherV2_1/axis", "op": "Const", "attr": {"dtype": {"type": "DT_INT32"}, "value": {"tensor": {"dtype": "DT_INT32", "tensorShape": {}}}}}, {"name": "StatefulPartitionedCall/tf_distil_bert_for_sequence_classification/distilbert/transformer/layer_._5/ffn/lin2/Tensordot/Const_1", "op": "Const", "attr": {"value": {"tensor": {"dtype": "DT_INT32", "tensorShape": {"dim": [{"size": "1"}]}}}, "dtype": {"type": "DT_INT32"}}}, {"name": "StatefulPartitionedCall/tf_distil_bert_for_sequence_classification/distilbert/transformer/layer_._5/ffn/lin2/Tensordot/ReadVariableOp", "op": "Const", "attr": {"dtype": {"type": "DT_FLOAT"}, "value": {"tensor": {"dtype": "DT_FLOAT", "tensorShape": {"dim": [{"size": "3072"}, {"size": "768"}]}}}}}, {"name": "StatefulPartitionedCall/tf_distil_bert_for_sequence_classification/distilbert/transformer/layer_._5/ffn/Gelu/mul/x", "op": "Const", "attr": {"dtype": {"type": "DT_FLOAT"}, "value": {"tensor": {"dtype": "DT_FLOAT", "tensorShape": {}}}}}, {"name": "StatefulPartitionedCall/tf_distil_bert_for_sequence_classification/distilbert/transformer/layer_._5/ffn/Gelu/add/x", "op": "Const", "attr": {"dtype": {"type": "DT_FLOAT"}, "value": {"tensor": {"dtype": "DT_FLOAT", "tensorShape": {}}}}}, {"name": "StatefulPartitionedCall/tf_distil_bert_for_sequence_classification/distilbert/transformer/layer_._5/ffn/lin1/Tensordot/Const", "op": "Const", "attr": {"value": {"tensor": {"dtype": "DT_INT32", "tensorShape": {"dim": [{"size": "1"}]}}}, "dtype": {"type": "DT_INT32"}}}, {"name": "StatefulPartitionedCall/tf_distil_bert_for_sequence_classification/distilbert/transformer/layer_._5/ffn/lin1/Tensordot/axes", "op": "Const", "attr": {"value": {"tensor": {"dtype": "DT_INT32", "tensorShape": {"dim": [{"size": "1"}]}}}, "dtype": {"type": "DT_INT32"}}}, {"name": "StatefulPartitionedCall/tf_distil_bert_for_sequence_classification/distilbert/transformer/layer_._5/ffn/lin1/Tensordot/GatherV2_1/axis", "op": "Const", "attr": {"dtype": {"type": "DT_INT32"}, "value": {"tensor": {"dtype": "DT_INT32", "tensorShape": {}}}}}, {"name": "StatefulPartitionedCall/tf_distil_bert_for_sequence_classification/distilbert/transformer/layer_._5/ffn/lin1/Tensordot/Const_1", "op": "Const", "attr": {"value": {"tensor": {"dtype": "DT_INT32", "tensorShape": {"dim": [{"size": "1"}]}}}, "dtype": {"type": "DT_INT32"}}}, {"name": "StatefulPartitionedCall/tf_distil_bert_for_sequence_classification/distilbert/transformer/layer_._5/ffn/lin1/Tensordot/ReadVariableOp", "op": "Const", "attr": {"dtype": {"type": "DT_FLOAT"}, "value": {"tensor": {"dtype": "DT_FLOAT", "tensorShape": {"dim": [{"size": "768"}, {"size": "3072"}]}}}}}, {"name": "StatefulPartitionedCall/tf_distil_bert_for_sequence_classification/distilbert/transformer/layer_._5/ffn/lin1/Tensordot/free", "op": "Const", "attr": {"dtype": {"type": "DT_INT32"}, "value": {"tensor": {"dtype": "DT_INT32", "tensorShape": {"dim": [{"size": "2"}]}}}}}, {"name": "StatefulPartitionedCall/tf_distil_bert_for_sequence_classification/distilbert/transformer/layer_._5/ffn/lin1/Tensordot/GatherV2/axis", "op": "Const", "attr": {"value": {"tensor": {"dtype": "DT_INT32", "tensorShape": {}}}, "dtype": {"type": "DT_INT32"}}}, {"name": "StatefulPartitionedCall/tf_distil_bert_for_sequence_classification/distilbert/transformer/layer_._5/ffn/lin1/Tensordot/Const_2", "op": "Const", "attr": {"dtype": {"type": "DT_INT32"}, "value": {"tensor": {"dtype": "DT_INT32", "tensorShape": {"dim": [{"size": "1"}]}}}}}, {"name": "StatefulPartitionedCall/tf_distil_bert_for_sequence_classification/distilbert/transformer/layer_._5/ffn/lin1/Tensordot/concat_1/axis", "op": "Const", "attr": {"value": {"tensor": {"dtype": "DT_INT32", "tensorShape": {}}}, "dtype": {"type": "DT_INT32"}}}, {"name": "StatefulPartitionedCall/tf_distil_bert_for_sequence_classification/distilbert/transformer/layer_._5/ffn/lin1/BiasAdd/ReadVariableOp", "op": "Const", "attr": {"value": {"tensor": {"dtype": "DT_FLOAT", "tensorShape": {"dim": [{"size": "3072"}]}}}, "dtype": {"type": "DT_FLOAT"}}}, {"name": "ConstantFolding/StatefulPartitionedCall/tf_distil_bert_for_sequence_classification/distilbert/transformer/layer_._5/ffn/Gelu/truediv_recip", "op": "Const", "attr": {"value": {"tensor": {"dtype": "DT_FLOAT", "tensorShape": {}}}, "dtype": {"type": "DT_FLOAT"}}}, {"name": "StatefulPartitionedCall/tf_distil_bert_for_sequence_classification/distilbert/transformer/layer_._5/ffn/lin2/Tensordot/free", "op": "Const", "attr": {"value": {"tensor": {"dtype": "DT_INT32", "tensorShape": {"dim": [{"size": "2"}]}}}, "dtype": {"type": "DT_INT32"}}}, {"name": "StatefulPartitionedCall/tf_distil_bert_for_sequence_classification/distilbert/transformer/layer_._5/ffn/lin2/Tensordot/GatherV2/axis", "op": "Const", "attr": {"value": {"tensor": {"dtype": "DT_INT32", "tensorShape": {}}}, "dtype": {"type": "DT_INT32"}}}, {"name": "StatefulPartitionedCall/tf_distil_bert_for_sequence_classification/distilbert/transformer/layer_._5/ffn/lin2/Tensordot/Const_2", "op": "Const", "attr": {"value": {"tensor": {"dtype": "DT_INT32", "tensorShape": {"dim": [{"size": "1"}]}}}, "dtype": {"type": "DT_INT32"}}}, {"name": "StatefulPartitionedCall/tf_distil_bert_for_sequence_classification/distilbert/transformer/layer_._5/ffn/lin2/Tensordot/concat_1/axis", "op": "Const", "attr": {"dtype": {"type": "DT_INT32"}, "value": {"tensor": {"dtype": "DT_INT32", "tensorShape": {}}}}}, {"name": "StatefulPartitionedCall/tf_distil_bert_for_sequence_classification/distilbert/transformer/layer_._5/ffn/lin2/BiasAdd/ReadVariableOp", "op": "Const", "attr": {"value": {"tensor": {"dtype": "DT_FLOAT", "tensorShape": {"dim": [{"size": "768"}]}}}, "dtype": {"type": "DT_FLOAT"}}}, {"name": "StatefulPartitionedCall/tf_distil_bert_for_sequence_classification/distilbert/transformer/layer_._5/sa_layer_norm/batchnorm/ReadVariableOp", "op": "Const", "attr": {"value": {"tensor": {"dtype": "DT_FLOAT", "tensorShape": {"dim": [{"size": "768"}]}}}, "dtype": {"type": "DT_FLOAT"}}}, {"name": "StatefulPartitionedCall/tf_distil_bert_for_sequence_classification/distilbert/transformer/layer_._5/attention/out_lin/Tensordot/Const", "op": "Const", "attr": {"dtype": {"type": "DT_INT32"}, "value": {"tensor": {"dtype": "DT_INT32", "tensorShape": {"dim": [{"size": "1"}]}}}}}, {"name": "StatefulPartitionedCall/tf_distil_bert_for_sequence_classification/distilbert/transformer/layer_._5/attention/out_lin/Tensordot/axes", "op": "Const", "attr": {"dtype": {"type": "DT_INT32"}, "value": {"tensor": {"dtype": "DT_INT32", "tensorShape": {"dim": [{"size": "1"}]}}}}}, {"name": "StatefulPartitionedCall/tf_distil_bert_for_sequence_classification/distilbert/transformer/layer_._5/attention/out_lin/Tensordot/GatherV2_1/axis", "op": "Const", "attr": {"dtype": {"type": "DT_INT32"}, "value": {"tensor": {"dtype": "DT_INT32", "tensorShape": {}}}}}, {"name": "StatefulPartitionedCall/tf_distil_bert_for_sequence_classification/distilbert/transformer/layer_._5/attention/out_lin/Tensordot/Const_1", "op": "Const", "attr": {"dtype": {"type": "DT_INT32"}, "value": {"tensor": {"dtype": "DT_INT32", "tensorShape": {"dim": [{"size": "1"}]}}}}}, {"name": "StatefulPartitionedCall/tf_distil_bert_for_sequence_classification/distilbert/transformer/layer_._5/attention/out_lin/Tensordot/ReadVariableOp", "op": "Const", "attr": {"value": {"tensor": {"dtype": "DT_FLOAT", "tensorShape": {"dim": [{"size": "768"}, {"size": "768"}]}}}, "dtype": {"type": "DT_FLOAT"}}}, {"name": "StatefulPartitionedCall/tf_distil_bert_for_sequence_classification/distilbert/transformer/layer_._5/attention/q_lin/Tensordot/Const", "op": "Const", "attr": {"value": {"tensor": {"dtype": "DT_INT32", "tensorShape": {"dim": [{"size": "1"}]}}}, "dtype": {"type": "DT_INT32"}}}, {"name": "StatefulPartitionedCall/tf_distil_bert_for_sequence_classification/distilbert/transformer/layer_._5/attention/q_lin/Tensordot/axes", "op": "Const", "attr": {"dtype": {"type": "DT_INT32"}, "value": {"tensor": {"dtype": "DT_INT32", "tensorShape": {"dim": [{"size": "1"}]}}}}}, {"name": "StatefulPartitionedCall/tf_distil_bert_for_sequence_classification/distilbert/transformer/layer_._5/attention/q_lin/Tensordot/GatherV2_1/axis", "op": "Const", "attr": {"value": {"tensor": {"dtype": "DT_INT32", "tensorShape": {}}}, "dtype": {"type": "DT_INT32"}}}, {"name": "StatefulPartitionedCall/tf_distil_bert_for_sequence_classification/distilbert/transformer/layer_._5/attention/q_lin/Tensordot/Const_1", "op": "Const", "attr": {"value": {"tensor": {"dtype": "DT_INT32", "tensorShape": {"dim": [{"size": "1"}]}}}, "dtype": {"type": "DT_INT32"}}}, {"name": "StatefulPartitionedCall/tf_distil_bert_for_sequence_classification/distilbert/transformer/layer_._5/attention/q_lin/Tensordot/ReadVariableOp", "op": "Const", "attr": {"dtype": {"type": "DT_FLOAT"}, "value": {"tensor": {"dtype": "DT_FLOAT", "tensorShape": {"dim": [{"size": "768"}, {"size": "768"}]}}}}}, {"name": "StatefulPartitionedCall/tf_distil_bert_for_sequence_classification/distilbert/transformer/layer_._5/attention/q_lin/Tensordot/free", "op": "Const", "attr": {"value": {"tensor": {"dtype": "DT_INT32", "tensorShape": {"dim": [{"size": "2"}]}}}, "dtype": {"type": "DT_INT32"}}}, {"name": "StatefulPartitionedCall/tf_distil_bert_for_sequence_classification/distilbert/transformer/layer_._5/attention/q_lin/Tensordot/GatherV2/axis", "op": "Const", "attr": {"dtype": {"type": "DT_INT32"}, "value": {"tensor": {"dtype": "DT_INT32", "tensorShape": {}}}}}, {"name": "StatefulPartitionedCall/tf_distil_bert_for_sequence_classification/distilbert/transformer/layer_._5/attention/q_lin/Tensordot/Const_2", "op": "Const", "attr": {"dtype": {"type": "DT_INT32"}, "value": {"tensor": {"dtype": "DT_INT32", "tensorShape": {"dim": [{"size": "1"}]}}}}}, {"name": "StatefulPartitionedCall/tf_distil_bert_for_sequence_classification/distilbert/transformer/layer_._5/attention/q_lin/Tensordot/concat_1/axis", "op": "Const", "attr": {"value": {"tensor": {"dtype": "DT_INT32", "tensorShape": {}}}, "dtype": {"type": "DT_INT32"}}}, {"name": "StatefulPartitionedCall/tf_distil_bert_for_sequence_classification/distilbert/transformer/layer_._5/attention/q_lin/BiasAdd/ReadVariableOp", "op": "Const", "attr": {"dtype": {"type": "DT_FLOAT"}, "value": {"tensor": {"dtype": "DT_FLOAT", "tensorShape": {"dim": [{"size": "768"}]}}}}}, {"name": "StatefulPartitionedCall/tf_distil_bert_for_sequence_classification/distilbert/transformer/layer_._5/attention/Reshape/shape/1", "op": "Const", "attr": {"value": {"tensor": {"dtype": "DT_INT32", "tensorShape": {}}}, "dtype": {"type": "DT_INT32"}}}, {"name": "StatefulPartitionedCall/tf_distil_bert_for_sequence_classification/distilbert/transformer/layer_._5/attention/Reshape/shape/2", "op": "Const", "attr": {"value": {"tensor": {"dtype": "DT_INT32", "tensorShape": {}}}, "dtype": {"type": "DT_INT32"}}}, {"name": "StatefulPartitionedCall/tf_distil_bert_for_sequence_classification/distilbert/transformer/layer_._5/attention/transpose/perm", "op": "Const", "attr": {"value": {"tensor": {"dtype": "DT_INT32", "tensorShape": {"dim": [{"size": "4"}]}}}, "dtype": {"type": "DT_INT32"}}}, {"name": "StatefulPartitionedCall/tf_distil_bert_for_sequence_classification/distilbert/transformer/layer_._5/attention/Rsqrt", "op": "Const", "attr": {"dtype": {"type": "DT_FLOAT"}, "value": {"tensor": {"dtype": "DT_FLOAT", "tensorShape": {}}}}}, {"name": "StatefulPartitionedCall/tf_distil_bert_for_sequence_classification/distilbert/transformer/layer_._5/attention/k_lin/Tensordot/Const", "op": "Const", "attr": {"dtype": {"type": "DT_INT32"}, "value": {"tensor": {"dtype": "DT_INT32", "tensorShape": {"dim": [{"size": "1"}]}}}}}, {"name": "StatefulPartitionedCall/tf_distil_bert_for_sequence_classification/distilbert/transformer/layer_._5/attention/k_lin/Tensordot/axes", "op": "Const", "attr": {"dtype": {"type": "DT_INT32"}, "value": {"tensor": {"dtype": "DT_INT32", "tensorShape": {"dim": [{"size": "1"}]}}}}}, {"name": "StatefulPartitionedCall/tf_distil_bert_for_sequence_classification/distilbert/transformer/layer_._5/attention/k_lin/Tensordot/GatherV2_1/axis", "op": "Const", "attr": {"dtype": {"type": "DT_INT32"}, "value": {"tensor": {"dtype": "DT_INT32", "tensorShape": {}}}}}, {"name": "StatefulPartitionedCall/tf_distil_bert_for_sequence_classification/distilbert/transformer/layer_._5/attention/k_lin/Tensordot/Const_1", "op": "Const", "attr": {"dtype": {"type": "DT_INT32"}, "value": {"tensor": {"dtype": "DT_INT32", "tensorShape": {"dim": [{"size": "1"}]}}}}}, {"name": "StatefulPartitionedCall/tf_distil_bert_for_sequence_classification/distilbert/transformer/layer_._5/attention/k_lin/Tensordot/ReadVariableOp", "op": "Const", "attr": {"dtype": {"type": "DT_FLOAT"}, "value": {"tensor": {"dtype": "DT_FLOAT", "tensorShape": {"dim": [{"size": "768"}, {"size": "768"}]}}}}}, {"name": "StatefulPartitionedCall/tf_distil_bert_for_sequence_classification/distilbert/transformer/layer_._5/attention/k_lin/Tensordot/free", "op": "Const", "attr": {"dtype": {"type": "DT_INT32"}, "value": {"tensor": {"dtype": "DT_INT32", "tensorShape": {"dim": [{"size": "2"}]}}}}}, {"name": "StatefulPartitionedCall/tf_distil_bert_for_sequence_classification/distilbert/transformer/layer_._5/attention/k_lin/Tensordot/GatherV2/axis", "op": "Const", "attr": {"value": {"tensor": {"dtype": "DT_INT32", "tensorShape": {}}}, "dtype": {"type": "DT_INT32"}}}, {"name": "StatefulPartitionedCall/tf_distil_bert_for_sequence_classification/distilbert/transformer/layer_._5/attention/k_lin/Tensordot/Const_2", "op": "Const", "attr": {"value": {"tensor": {"dtype": "DT_INT32", "tensorShape": {"dim": [{"size": "1"}]}}}, "dtype": {"type": "DT_INT32"}}}, {"name": "StatefulPartitionedCall/tf_distil_bert_for_sequence_classification/distilbert/transformer/layer_._5/attention/k_lin/Tensordot/concat_1/axis", "op": "Const", "attr": {"dtype": {"type": "DT_INT32"}, "value": {"tensor": {"dtype": "DT_INT32", "tensorShape": {}}}}}, {"name": "StatefulPartitionedCall/tf_distil_bert_for_sequence_classification/distilbert/transformer/layer_._5/attention/k_lin/BiasAdd/ReadVariableOp", "op": "Const", "attr": {"value": {"tensor": {"dtype": "DT_FLOAT", "tensorShape": {"dim": [{"size": "768"}]}}}, "dtype": {"type": "DT_FLOAT"}}}, {"name": "StatefulPartitionedCall/tf_distil_bert_for_sequence_classification/distilbert/transformer/layer_._5/attention/Reshape_1/shape/1", "op": "Const", "attr": {"value": {"tensor": {"dtype": "DT_INT32", "tensorShape": {}}}, "dtype": {"type": "DT_INT32"}}}, {"name": "StatefulPartitionedCall/tf_distil_bert_for_sequence_classification/distilbert/transformer/layer_._5/attention/Reshape_1/shape/2", "op": "Const", "attr": {"dtype": {"type": "DT_INT32"}, "value": {"tensor": {"dtype": "DT_INT32", "tensorShape": {}}}}}, {"name": "StatefulPartitionedCall/tf_distil_bert_for_sequence_classification/distilbert/transformer/layer_._5/attention/transpose_1/perm", "op": "Const", "attr": {"dtype": {"type": "DT_INT32"}, "value": {"tensor": {"dtype": "DT_INT32", "tensorShape": {"dim": [{"size": "4"}]}}}}}, {"name": "StatefulPartitionedCall/tf_distil_bert_for_sequence_classification/distilbert/transformer/layer_._5/attention/add/y", "op": "Const", "attr": {"value": {"tensor": {"dtype": "DT_FLOAT", "tensorShape": {}}}, "dtype": {"type": "DT_FLOAT"}}}, {"name": "StatefulPartitionedCall/tf_distil_bert_for_sequence_classification/distilbert/transformer/layer_._5/attention/mul_1/x", "op": "Const", "attr": {"value": {"tensor": {"dtype": "DT_FLOAT", "tensorShape": {}}}, "dtype": {"type": "DT_FLOAT"}}}, {"name": "StatefulPartitionedCall/tf_distil_bert_for_sequence_classification/distilbert/transformer/layer_._5/attention/sub/x", "op": "Const", "attr": {"value": {"tensor": {"dtype": "DT_FLOAT", "tensorShape": {}}}, "dtype": {"type": "DT_FLOAT"}}}, {"name": "StatefulPartitionedCall/tf_distil_bert_for_sequence_classification/distilbert/transformer/layer_._5/attention/Reshape_3/shape/1", "op": "Const", "attr": {"dtype": {"type": "DT_INT32"}, "value": {"tensor": {"dtype": "DT_INT32", "tensorShape": {}}}}}, {"name": "StatefulPartitionedCall/tf_distil_bert_for_sequence_classification/distilbert/transformer/layer_._5/attention/Reshape_3/shape/2", "op": "Const", "attr": {"dtype": {"type": "DT_INT32"}, "value": {"tensor": {"dtype": "DT_INT32", "tensorShape": {}}}}}, {"name": "StatefulPartitionedCall/tf_distil_bert_for_sequence_classification/distilbert/transformer/layer_._5/attention/strided_slice_3/stack", "op": "Const", "attr": {"dtype": {"type": "DT_INT32"}, "value": {"tensor": {"dtype": "DT_INT32", "tensorShape": {"dim": [{"size": "1"}]}}}}}, {"name": "StatefulPartitionedCall/tf_distil_bert_for_sequence_classification/distilbert/transformer/layer_._5/attention/strided_slice_3/stack_1", "op": "Const", "attr": {"dtype": {"type": "DT_INT32"}, "value": {"tensor": {"dtype": "DT_INT32", "tensorShape": {"dim": [{"size": "1"}]}}}}}, {"name": "StatefulPartitionedCall/tf_distil_bert_for_sequence_classification/distilbert/transformer/layer_._5/attention/strided_slice_3/stack_2", "op": "Const", "attr": {"dtype": {"type": "DT_INT32"}, "value": {"tensor": {"dtype": "DT_INT32", "tensorShape": {"dim": [{"size": "1"}]}}}}}, {"name": "StatefulPartitionedCall/tf_distil_bert_for_sequence_classification/distilbert/transformer/layer_._5/attention/v_lin/Tensordot/Const", "op": "Const", "attr": {"value": {"tensor": {"dtype": "DT_INT32", "tensorShape": {"dim": [{"size": "1"}]}}}, "dtype": {"type": "DT_INT32"}}}, {"name": "StatefulPartitionedCall/tf_distil_bert_for_sequence_classification/distilbert/transformer/layer_._5/attention/v_lin/Tensordot/axes", "op": "Const", "attr": {"value": {"tensor": {"dtype": "DT_INT32", "tensorShape": {"dim": [{"size": "1"}]}}}, "dtype": {"type": "DT_INT32"}}}, {"name": "StatefulPartitionedCall/tf_distil_bert_for_sequence_classification/distilbert/transformer/layer_._5/attention/v_lin/Tensordot/GatherV2_1/axis", "op": "Const", "attr": {"value": {"tensor": {"dtype": "DT_INT32", "tensorShape": {}}}, "dtype": {"type": "DT_INT32"}}}, {"name": "StatefulPartitionedCall/tf_distil_bert_for_sequence_classification/distilbert/transformer/layer_._5/attention/v_lin/Tensordot/Const_1", "op": "Const", "attr": {"value": {"tensor": {"dtype": "DT_INT32", "tensorShape": {"dim": [{"size": "1"}]}}}, "dtype": {"type": "DT_INT32"}}}, {"name": "StatefulPartitionedCall/tf_distil_bert_for_sequence_classification/distilbert/transformer/layer_._5/attention/v_lin/Tensordot/ReadVariableOp", "op": "Const", "attr": {"value": {"tensor": {"dtype": "DT_FLOAT", "tensorShape": {"dim": [{"size": "768"}, {"size": "768"}]}}}, "dtype": {"type": "DT_FLOAT"}}}, {"name": "StatefulPartitionedCall/tf_distil_bert_for_sequence_classification/distilbert/transformer/layer_._5/attention/v_lin/Tensordot/free", "op": "Const", "attr": {"dtype": {"type": "DT_INT32"}, "value": {"tensor": {"dtype": "DT_INT32", "tensorShape": {"dim": [{"size": "2"}]}}}}}, {"name": "StatefulPartitionedCall/tf_distil_bert_for_sequence_classification/distilbert/transformer/layer_._5/attention/v_lin/Tensordot/GatherV2/axis", "op": "Const", "attr": {"dtype": {"type": "DT_INT32"}, "value": {"tensor": {"dtype": "DT_INT32", "tensorShape": {}}}}}, {"name": "StatefulPartitionedCall/tf_distil_bert_for_sequence_classification/distilbert/transformer/layer_._5/attention/v_lin/Tensordot/Const_2", "op": "Const", "attr": {"dtype": {"type": "DT_INT32"}, "value": {"tensor": {"dtype": "DT_INT32", "tensorShape": {"dim": [{"size": "1"}]}}}}}, {"name": "StatefulPartitionedCall/tf_distil_bert_for_sequence_classification/distilbert/transformer/layer_._5/attention/v_lin/Tensordot/concat_1/axis", "op": "Const", "attr": {"dtype": {"type": "DT_INT32"}, "value": {"tensor": {"dtype": "DT_INT32", "tensorShape": {}}}}}, {"name": "StatefulPartitionedCall/tf_distil_bert_for_sequence_classification/distilbert/transformer/layer_._5/attention/v_lin/BiasAdd/ReadVariableOp", "op": "Const", "attr": {"dtype": {"type": "DT_FLOAT"}, "value": {"tensor": {"dtype": "DT_FLOAT", "tensorShape": {"dim": [{"size": "768"}]}}}}}, {"name": "StatefulPartitionedCall/tf_distil_bert_for_sequence_classification/distilbert/transformer/layer_._5/attention/Reshape_2/shape/1", "op": "Const", "attr": {"dtype": {"type": "DT_INT32"}, "value": {"tensor": {"dtype": "DT_INT32", "tensorShape": {}}}}}, {"name": "StatefulPartitionedCall/tf_distil_bert_for_sequence_classification/distilbert/transformer/layer_._5/attention/Reshape_2/shape/2", "op": "Const", "attr": {"value": {"tensor": {"dtype": "DT_INT32", "tensorShape": {}}}, "dtype": {"type": "DT_INT32"}}}, {"name": "StatefulPartitionedCall/tf_distil_bert_for_sequence_classification/distilbert/transformer/layer_._5/attention/Cast/x", "op": "Const", "attr": {"value": {"tensor": {"dtype": "DT_INT32", "tensorShape": {}}}, "dtype": {"type": "DT_INT32"}}}, {"name": "StatefulPartitionedCall/tf_distil_bert_for_sequence_classification/distilbert/transformer/layer_._5/attention/transpose_2/perm", "op": "Const", "attr": {"value": {"tensor": {"dtype": "DT_INT32", "tensorShape": {"dim": [{"size": "4"}]}}}, "dtype": {"type": "DT_INT32"}}}, {"name": "StatefulPartitionedCall/tf_distil_bert_for_sequence_classification/distilbert/transformer/layer_._5/attention/transpose_3/perm", "op": "Const", "attr": {"dtype": {"type": "DT_INT32"}, "value": {"tensor": {"dtype": "DT_INT32", "tensorShape": {"dim": [{"size": "4"}]}}}}}, {"name": "StatefulPartitionedCall/tf_distil_bert_for_sequence_classification/distilbert/transformer/layer_._5/attention/strided_slice/stack", "op": "Const", "attr": {"value": {"tensor": {"dtype": "DT_INT32", "tensorShape": {"dim": [{"size": "1"}]}}}, "dtype": {"type": "DT_INT32"}}}, {"name": "StatefulPartitionedCall/tf_distil_bert_for_sequence_classification/distilbert/transformer/layer_._5/attention/strided_slice/stack_1", "op": "Const", "attr": {"value": {"tensor": {"dtype": "DT_INT32", "tensorShape": {"dim": [{"size": "1"}]}}}, "dtype": {"type": "DT_INT32"}}}, {"name": "StatefulPartitionedCall/tf_distil_bert_for_sequence_classification/distilbert/transformer/layer_._5/attention/strided_slice/stack_2", "op": "Const", "attr": {"value": {"tensor": {"dtype": "DT_INT32", "tensorShape": {"dim": [{"size": "1"}]}}}, "dtype": {"type": "DT_INT32"}}}, {"name": "StatefulPartitionedCall/tf_distil_bert_for_sequence_classification/distilbert/transformer/layer_._5/attention/Reshape_4/shape/1", "op": "Const", "attr": {"dtype": {"type": "DT_INT32"}, "value": {"tensor": {"dtype": "DT_INT32", "tensorShape": {}}}}}, {"name": "StatefulPartitionedCall/tf_distil_bert_for_sequence_classification/distilbert/transformer/layer_._5/attention/mul_2", "op": "Const", "attr": {"dtype": {"type": "DT_INT32"}, "value": {"tensor": {"dtype": "DT_INT32", "tensorShape": {}}}}}, {"name": "StatefulPartitionedCall/tf_distil_bert_for_sequence_classification/distilbert/transformer/layer_._5/attention/out_lin/Tensordot/free", "op": "Const", "attr": {"value": {"tensor": {"dtype": "DT_INT32", "tensorShape": {"dim": [{"size": "2"}]}}}, "dtype": {"type": "DT_INT32"}}}, {"name": "StatefulPartitionedCall/tf_distil_bert_for_sequence_classification/distilbert/transformer/layer_._5/attention/out_lin/Tensordot/GatherV2/axis", "op": "Const", "attr": {"dtype": {"type": "DT_INT32"}, "value": {"tensor": {"dtype": "DT_INT32", "tensorShape": {}}}}}, {"name": "StatefulPartitionedCall/tf_distil_bert_for_sequence_classification/distilbert/transformer/layer_._5/attention/out_lin/Tensordot/Const_2", "op": "Const", "attr": {"dtype": {"type": "DT_INT32"}, "value": {"tensor": {"dtype": "DT_INT32", "tensorShape": {"dim": [{"size": "1"}]}}}}}, {"name": "StatefulPartitionedCall/tf_distil_bert_for_sequence_classification/distilbert/transformer/layer_._5/attention/out_lin/Tensordot/concat_1/axis", "op": "Const", "attr": {"dtype": {"type": "DT_INT32"}, "value": {"tensor": {"dtype": "DT_INT32", "tensorShape": {}}}}}, {"name": "StatefulPartitionedCall/tf_distil_bert_for_sequence_classification/distilbert/transformer/layer_._5/attention/out_lin/BiasAdd/ReadVariableOp", "op": "Const", "attr": {"dtype": {"type": "DT_FLOAT"}, "value": {"tensor": {"dtype": "DT_FLOAT", "tensorShape": {"dim": [{"size": "768"}]}}}}}, {"name": "StatefulPartitionedCall/tf_distil_bert_for_sequence_classification/distilbert/transformer/layer_._4/output_layer_norm/batchnorm/ReadVariableOp", "op": "Const", "attr": {"value": {"tensor": {"dtype": "DT_FLOAT", "tensorShape": {"dim": [{"size": "768"}]}}}, "dtype": {"type": "DT_FLOAT"}}}, {"name": "StatefulPartitionedCall/tf_distil_bert_for_sequence_classification/distilbert/transformer/layer_._4/ffn/lin2/Tensordot/Const", "op": "Const", "attr": {"value": {"tensor": {"dtype": "DT_INT32", "tensorShape": {"dim": [{"size": "1"}]}}}, "dtype": {"type": "DT_INT32"}}}, {"name": "StatefulPartitionedCall/tf_distil_bert_for_sequence_classification/distilbert/transformer/layer_._4/ffn/lin2/Tensordot/axes", "op": "Const", "attr": {"value": {"tensor": {"dtype": "DT_INT32", "tensorShape": {"dim": [{"size": "1"}]}}}, "dtype": {"type": "DT_INT32"}}}, {"name": "StatefulPartitionedCall/tf_distil_bert_for_sequence_classification/distilbert/transformer/layer_._4/ffn/lin2/Tensordot/GatherV2_1/axis", "op": "Const", "attr": {"dtype": {"type": "DT_INT32"}, "value": {"tensor": {"dtype": "DT_INT32", "tensorShape": {}}}}}, {"name": "StatefulPartitionedCall/tf_distil_bert_for_sequence_classification/distilbert/transformer/layer_._4/ffn/lin2/Tensordot/Const_1", "op": "Const", "attr": {"dtype": {"type": "DT_INT32"}, "value": {"tensor": {"dtype": "DT_INT32", "tensorShape": {"dim": [{"size": "1"}]}}}}}, {"name": "StatefulPartitionedCall/tf_distil_bert_for_sequence_classification/distilbert/transformer/layer_._4/ffn/lin2/Tensordot/ReadVariableOp", "op": "Const", "attr": {"value": {"tensor": {"dtype": "DT_FLOAT", "tensorShape": {"dim": [{"size": "3072"}, {"size": "768"}]}}}, "dtype": {"type": "DT_FLOAT"}}}, {"name": "StatefulPartitionedCall/tf_distil_bert_for_sequence_classification/distilbert/transformer/layer_._4/ffn/Gelu/mul/x", "op": "Const", "attr": {"dtype": {"type": "DT_FLOAT"}, "value": {"tensor": {"dtype": "DT_FLOAT", "tensorShape": {}}}}}, {"name": "StatefulPartitionedCall/tf_distil_bert_for_sequence_classification/distilbert/transformer/layer_._4/ffn/Gelu/add/x", "op": "Const", "attr": {"dtype": {"type": "DT_FLOAT"}, "value": {"tensor": {"dtype": "DT_FLOAT", "tensorShape": {}}}}}, {"name": "StatefulPartitionedCall/tf_distil_bert_for_sequence_classification/distilbert/transformer/layer_._4/ffn/lin1/Tensordot/Const", "op": "Const", "attr": {"dtype": {"type": "DT_INT32"}, "value": {"tensor": {"dtype": "DT_INT32", "tensorShape": {"dim": [{"size": "1"}]}}}}}, {"name": "StatefulPartitionedCall/tf_distil_bert_for_sequence_classification/distilbert/transformer/layer_._4/ffn/lin1/Tensordot/axes", "op": "Const", "attr": {"value": {"tensor": {"dtype": "DT_INT32", "tensorShape": {"dim": [{"size": "1"}]}}}, "dtype": {"type": "DT_INT32"}}}, {"name": "StatefulPartitionedCall/tf_distil_bert_for_sequence_classification/distilbert/transformer/layer_._4/ffn/lin1/Tensordot/GatherV2_1/axis", "op": "Const", "attr": {"dtype": {"type": "DT_INT32"}, "value": {"tensor": {"dtype": "DT_INT32", "tensorShape": {}}}}}, {"name": "StatefulPartitionedCall/tf_distil_bert_for_sequence_classification/distilbert/transformer/layer_._4/ffn/lin1/Tensordot/Const_1", "op": "Const", "attr": {"value": {"tensor": {"dtype": "DT_INT32", "tensorShape": {"dim": [{"size": "1"}]}}}, "dtype": {"type": "DT_INT32"}}}, {"name": "StatefulPartitionedCall/tf_distil_bert_for_sequence_classification/distilbert/transformer/layer_._4/ffn/lin1/Tensordot/ReadVariableOp", "op": "Const", "attr": {"dtype": {"type": "DT_FLOAT"}, "value": {"tensor": {"dtype": "DT_FLOAT", "tensorShape": {"dim": [{"size": "768"}, {"size": "3072"}]}}}}}, {"name": "StatefulPartitionedCall/tf_distil_bert_for_sequence_classification/distilbert/transformer/layer_._4/ffn/lin1/Tensordot/free", "op": "Const", "attr": {"dtype": {"type": "DT_INT32"}, "value": {"tensor": {"dtype": "DT_INT32", "tensorShape": {"dim": [{"size": "2"}]}}}}}, {"name": "StatefulPartitionedCall/tf_distil_bert_for_sequence_classification/distilbert/transformer/layer_._4/ffn/lin1/Tensordot/GatherV2/axis", "op": "Const", "attr": {"value": {"tensor": {"dtype": "DT_INT32", "tensorShape": {}}}, "dtype": {"type": "DT_INT32"}}}, {"name": "StatefulPartitionedCall/tf_distil_bert_for_sequence_classification/distilbert/transformer/layer_._4/ffn/lin1/Tensordot/Const_2", "op": "Const", "attr": {"value": {"tensor": {"dtype": "DT_INT32", "tensorShape": {"dim": [{"size": "1"}]}}}, "dtype": {"type": "DT_INT32"}}}, {"name": "StatefulPartitionedCall/tf_distil_bert_for_sequence_classification/distilbert/transformer/layer_._4/ffn/lin1/Tensordot/concat_1/axis", "op": "Const", "attr": {"dtype": {"type": "DT_INT32"}, "value": {"tensor": {"dtype": "DT_INT32", "tensorShape": {}}}}}, {"name": "StatefulPartitionedCall/tf_distil_bert_for_sequence_classification/distilbert/transformer/layer_._4/ffn/lin1/BiasAdd/ReadVariableOp", "op": "Const", "attr": {"dtype": {"type": "DT_FLOAT"}, "value": {"tensor": {"dtype": "DT_FLOAT", "tensorShape": {"dim": [{"size": "3072"}]}}}}}, {"name": "ConstantFolding/StatefulPartitionedCall/tf_distil_bert_for_sequence_classification/distilbert/transformer/layer_._4/ffn/Gelu/truediv_recip", "op": "Const", "attr": {"value": {"tensor": {"dtype": "DT_FLOAT", "tensorShape": {}}}, "dtype": {"type": "DT_FLOAT"}}}, {"name": "StatefulPartitionedCall/tf_distil_bert_for_sequence_classification/distilbert/transformer/layer_._4/ffn/lin2/Tensordot/free", "op": "Const", "attr": {"value": {"tensor": {"dtype": "DT_INT32", "tensorShape": {"dim": [{"size": "2"}]}}}, "dtype": {"type": "DT_INT32"}}}, {"name": "StatefulPartitionedCall/tf_distil_bert_for_sequence_classification/distilbert/transformer/layer_._4/ffn/lin2/Tensordot/GatherV2/axis", "op": "Const", "attr": {"value": {"tensor": {"dtype": "DT_INT32", "tensorShape": {}}}, "dtype": {"type": "DT_INT32"}}}, {"name": "StatefulPartitionedCall/tf_distil_bert_for_sequence_classification/distilbert/transformer/layer_._4/ffn/lin2/Tensordot/Const_2", "op": "Const", "attr": {"dtype": {"type": "DT_INT32"}, "value": {"tensor": {"dtype": "DT_INT32", "tensorShape": {"dim": [{"size": "1"}]}}}}}, {"name": "StatefulPartitionedCall/tf_distil_bert_for_sequence_classification/distilbert/transformer/layer_._4/ffn/lin2/Tensordot/concat_1/axis", "op": "Const", "attr": {"value": {"tensor": {"dtype": "DT_INT32", "tensorShape": {}}}, "dtype": {"type": "DT_INT32"}}}, {"name": "StatefulPartitionedCall/tf_distil_bert_for_sequence_classification/distilbert/transformer/layer_._4/ffn/lin2/BiasAdd/ReadVariableOp", "op": "Const", "attr": {"value": {"tensor": {"dtype": "DT_FLOAT", "tensorShape": {"dim": [{"size": "768"}]}}}, "dtype": {"type": "DT_FLOAT"}}}, {"name": "StatefulPartitionedCall/tf_distil_bert_for_sequence_classification/distilbert/transformer/layer_._4/sa_layer_norm/batchnorm/ReadVariableOp", "op": "Const", "attr": {"value": {"tensor": {"dtype": "DT_FLOAT", "tensorShape": {"dim": [{"size": "768"}]}}}, "dtype": {"type": "DT_FLOAT"}}}, {"name": "StatefulPartitionedCall/tf_distil_bert_for_sequence_classification/distilbert/transformer/layer_._4/attention/out_lin/Tensordot/Const", "op": "Const", "attr": {"value": {"tensor": {"dtype": "DT_INT32", "tensorShape": {"dim": [{"size": "1"}]}}}, "dtype": {"type": "DT_INT32"}}}, {"name": "StatefulPartitionedCall/tf_distil_bert_for_sequence_classification/distilbert/transformer/layer_._4/attention/out_lin/Tensordot/axes", "op": "Const", "attr": {"value": {"tensor": {"dtype": "DT_INT32", "tensorShape": {"dim": [{"size": "1"}]}}}, "dtype": {"type": "DT_INT32"}}}, {"name": "StatefulPartitionedCall/tf_distil_bert_for_sequence_classification/distilbert/transformer/layer_._4/attention/out_lin/Tensordot/GatherV2_1/axis", "op": "Const", "attr": {"dtype": {"type": "DT_INT32"}, "value": {"tensor": {"dtype": "DT_INT32", "tensorShape": {}}}}}, {"name": "StatefulPartitionedCall/tf_distil_bert_for_sequence_classification/distilbert/transformer/layer_._4/attention/out_lin/Tensordot/Const_1", "op": "Const", "attr": {"dtype": {"type": "DT_INT32"}, "value": {"tensor": {"dtype": "DT_INT32", "tensorShape": {"dim": [{"size": "1"}]}}}}}, {"name": "StatefulPartitionedCall/tf_distil_bert_for_sequence_classification/distilbert/transformer/layer_._4/attention/out_lin/Tensordot/ReadVariableOp", "op": "Const", "attr": {"value": {"tensor": {"dtype": "DT_FLOAT", "tensorShape": {"dim": [{"size": "768"}, {"size": "768"}]}}}, "dtype": {"type": "DT_FLOAT"}}}, {"name": "StatefulPartitionedCall/tf_distil_bert_for_sequence_classification/distilbert/transformer/layer_._4/attention/q_lin/Tensordot/Const", "op": "Const", "attr": {"dtype": {"type": "DT_INT32"}, "value": {"tensor": {"dtype": "DT_INT32", "tensorShape": {"dim": [{"size": "1"}]}}}}}, {"name": "StatefulPartitionedCall/tf_distil_bert_for_sequence_classification/distilbert/transformer/layer_._4/attention/q_lin/Tensordot/axes", "op": "Const", "attr": {"value": {"tensor": {"dtype": "DT_INT32", "tensorShape": {"dim": [{"size": "1"}]}}}, "dtype": {"type": "DT_INT32"}}}, {"name": "StatefulPartitionedCall/tf_distil_bert_for_sequence_classification/distilbert/transformer/layer_._4/attention/q_lin/Tensordot/GatherV2_1/axis", "op": "Const", "attr": {"dtype": {"type": "DT_INT32"}, "value": {"tensor": {"dtype": "DT_INT32", "tensorShape": {}}}}}, {"name": "StatefulPartitionedCall/tf_distil_bert_for_sequence_classification/distilbert/transformer/layer_._4/attention/q_lin/Tensordot/Const_1", "op": "Const", "attr": {"dtype": {"type": "DT_INT32"}, "value": {"tensor": {"dtype": "DT_INT32", "tensorShape": {"dim": [{"size": "1"}]}}}}}, {"name": "StatefulPartitionedCall/tf_distil_bert_for_sequence_classification/distilbert/transformer/layer_._4/attention/q_lin/Tensordot/ReadVariableOp", "op": "Const", "attr": {"value": {"tensor": {"dtype": "DT_FLOAT", "tensorShape": {"dim": [{"size": "768"}, {"size": "768"}]}}}, "dtype": {"type": "DT_FLOAT"}}}, {"name": "StatefulPartitionedCall/tf_distil_bert_for_sequence_classification/distilbert/transformer/layer_._4/attention/q_lin/Tensordot/free", "op": "Const", "attr": {"dtype": {"type": "DT_INT32"}, "value": {"tensor": {"dtype": "DT_INT32", "tensorShape": {"dim": [{"size": "2"}]}}}}}, {"name": "StatefulPartitionedCall/tf_distil_bert_for_sequence_classification/distilbert/transformer/layer_._4/attention/q_lin/Tensordot/GatherV2/axis", "op": "Const", "attr": {"value": {"tensor": {"dtype": "DT_INT32", "tensorShape": {}}}, "dtype": {"type": "DT_INT32"}}}, {"name": "StatefulPartitionedCall/tf_distil_bert_for_sequence_classification/distilbert/transformer/layer_._4/attention/q_lin/Tensordot/Const_2", "op": "Const", "attr": {"dtype": {"type": "DT_INT32"}, "value": {"tensor": {"dtype": "DT_INT32", "tensorShape": {"dim": [{"size": "1"}]}}}}}, {"name": "StatefulPartitionedCall/tf_distil_bert_for_sequence_classification/distilbert/transformer/layer_._4/attention/q_lin/Tensordot/concat_1/axis", "op": "Const", "attr": {"value": {"tensor": {"dtype": "DT_INT32", "tensorShape": {}}}, "dtype": {"type": "DT_INT32"}}}, {"name": "StatefulPartitionedCall/tf_distil_bert_for_sequence_classification/distilbert/transformer/layer_._4/attention/q_lin/BiasAdd/ReadVariableOp", "op": "Const", "attr": {"dtype": {"type": "DT_FLOAT"}, "value": {"tensor": {"dtype": "DT_FLOAT", "tensorShape": {"dim": [{"size": "768"}]}}}}}, {"name": "StatefulPartitionedCall/tf_distil_bert_for_sequence_classification/distilbert/transformer/layer_._4/attention/Reshape/shape/1", "op": "Const", "attr": {"value": {"tensor": {"dtype": "DT_INT32", "tensorShape": {}}}, "dtype": {"type": "DT_INT32"}}}, {"name": "StatefulPartitionedCall/tf_distil_bert_for_sequence_classification/distilbert/transformer/layer_._4/attention/Reshape/shape/2", "op": "Const", "attr": {"dtype": {"type": "DT_INT32"}, "value": {"tensor": {"dtype": "DT_INT32", "tensorShape": {}}}}}, {"name": "StatefulPartitionedCall/tf_distil_bert_for_sequence_classification/distilbert/transformer/layer_._4/attention/transpose/perm", "op": "Const", "attr": {"value": {"tensor": {"dtype": "DT_INT32", "tensorShape": {"dim": [{"size": "4"}]}}}, "dtype": {"type": "DT_INT32"}}}, {"name": "StatefulPartitionedCall/tf_distil_bert_for_sequence_classification/distilbert/transformer/layer_._4/attention/Rsqrt", "op": "Const", "attr": {"value": {"tensor": {"dtype": "DT_FLOAT", "tensorShape": {}}}, "dtype": {"type": "DT_FLOAT"}}}, {"name": "StatefulPartitionedCall/tf_distil_bert_for_sequence_classification/distilbert/transformer/layer_._4/attention/k_lin/Tensordot/Const", "op": "Const", "attr": {"dtype": {"type": "DT_INT32"}, "value": {"tensor": {"dtype": "DT_INT32", "tensorShape": {"dim": [{"size": "1"}]}}}}}, {"name": "StatefulPartitionedCall/tf_distil_bert_for_sequence_classification/distilbert/transformer/layer_._4/attention/k_lin/Tensordot/axes", "op": "Const", "attr": {"value": {"tensor": {"dtype": "DT_INT32", "tensorShape": {"dim": [{"size": "1"}]}}}, "dtype": {"type": "DT_INT32"}}}, {"name": "StatefulPartitionedCall/tf_distil_bert_for_sequence_classification/distilbert/transformer/layer_._4/attention/k_lin/Tensordot/GatherV2_1/axis", "op": "Const", "attr": {"value": {"tensor": {"dtype": "DT_INT32", "tensorShape": {}}}, "dtype": {"type": "DT_INT32"}}}, {"name": "StatefulPartitionedCall/tf_distil_bert_for_sequence_classification/distilbert/transformer/layer_._4/attention/k_lin/Tensordot/Const_1", "op": "Const", "attr": {"dtype": {"type": "DT_INT32"}, "value": {"tensor": {"dtype": "DT_INT32", "tensorShape": {"dim": [{"size": "1"}]}}}}}, {"name": "StatefulPartitionedCall/tf_distil_bert_for_sequence_classification/distilbert/transformer/layer_._4/attention/k_lin/Tensordot/ReadVariableOp", "op": "Const", "attr": {"dtype": {"type": "DT_FLOAT"}, "value": {"tensor": {"dtype": "DT_FLOAT", "tensorShape": {"dim": [{"size": "768"}, {"size": "768"}]}}}}}, {"name": "StatefulPartitionedCall/tf_distil_bert_for_sequence_classification/distilbert/transformer/layer_._4/attention/k_lin/Tensordot/free", "op": "Const", "attr": {"value": {"tensor": {"dtype": "DT_INT32", "tensorShape": {"dim": [{"size": "2"}]}}}, "dtype": {"type": "DT_INT32"}}}, {"name": "StatefulPartitionedCall/tf_distil_bert_for_sequence_classification/distilbert/transformer/layer_._4/attention/k_lin/Tensordot/GatherV2/axis", "op": "Const", "attr": {"dtype": {"type": "DT_INT32"}, "value": {"tensor": {"dtype": "DT_INT32", "tensorShape": {}}}}}, {"name": "StatefulPartitionedCall/tf_distil_bert_for_sequence_classification/distilbert/transformer/layer_._4/attention/k_lin/Tensordot/Const_2", "op": "Const", "attr": {"dtype": {"type": "DT_INT32"}, "value": {"tensor": {"dtype": "DT_INT32", "tensorShape": {"dim": [{"size": "1"}]}}}}}, {"name": "StatefulPartitionedCall/tf_distil_bert_for_sequence_classification/distilbert/transformer/layer_._4/attention/k_lin/Tensordot/concat_1/axis", "op": "Const", "attr": {"dtype": {"type": "DT_INT32"}, "value": {"tensor": {"dtype": "DT_INT32", "tensorShape": {}}}}}, {"name": "StatefulPartitionedCall/tf_distil_bert_for_sequence_classification/distilbert/transformer/layer_._4/attention/k_lin/BiasAdd/ReadVariableOp", "op": "Const", "attr": {"dtype": {"type": "DT_FLOAT"}, "value": {"tensor": {"dtype": "DT_FLOAT", "tensorShape": {"dim": [{"size": "768"}]}}}}}, {"name": "StatefulPartitionedCall/tf_distil_bert_for_sequence_classification/distilbert/transformer/layer_._4/attention/Reshape_1/shape/1", "op": "Const", "attr": {"dtype": {"type": "DT_INT32"}, "value": {"tensor": {"dtype": "DT_INT32", "tensorShape": {}}}}}, {"name": "StatefulPartitionedCall/tf_distil_bert_for_sequence_classification/distilbert/transformer/layer_._4/attention/Reshape_1/shape/2", "op": "Const", "attr": {"value": {"tensor": {"dtype": "DT_INT32", "tensorShape": {}}}, "dtype": {"type": "DT_INT32"}}}, {"name": "StatefulPartitionedCall/tf_distil_bert_for_sequence_classification/distilbert/transformer/layer_._4/attention/transpose_1/perm", "op": "Const", "attr": {"value": {"tensor": {"dtype": "DT_INT32", "tensorShape": {"dim": [{"size": "4"}]}}}, "dtype": {"type": "DT_INT32"}}}, {"name": "StatefulPartitionedCall/tf_distil_bert_for_sequence_classification/distilbert/transformer/layer_._4/attention/add/y", "op": "Const", "attr": {"value": {"tensor": {"dtype": "DT_FLOAT", "tensorShape": {}}}, "dtype": {"type": "DT_FLOAT"}}}, {"name": "StatefulPartitionedCall/tf_distil_bert_for_sequence_classification/distilbert/transformer/layer_._4/attention/mul_1/x", "op": "Const", "attr": {"value": {"tensor": {"dtype": "DT_FLOAT", "tensorShape": {}}}, "dtype": {"type": "DT_FLOAT"}}}, {"name": "StatefulPartitionedCall/tf_distil_bert_for_sequence_classification/distilbert/transformer/layer_._4/attention/sub/x", "op": "Const", "attr": {"value": {"tensor": {"dtype": "DT_FLOAT", "tensorShape": {}}}, "dtype": {"type": "DT_FLOAT"}}}, {"name": "StatefulPartitionedCall/tf_distil_bert_for_sequence_classification/distilbert/transformer/layer_._4/attention/Reshape_3/shape/1", "op": "Const", "attr": {"value": {"tensor": {"dtype": "DT_INT32", "tensorShape": {}}}, "dtype": {"type": "DT_INT32"}}}, {"name": "StatefulPartitionedCall/tf_distil_bert_for_sequence_classification/distilbert/transformer/layer_._4/attention/Reshape_3/shape/2", "op": "Const", "attr": {"dtype": {"type": "DT_INT32"}, "value": {"tensor": {"dtype": "DT_INT32", "tensorShape": {}}}}}, {"name": "StatefulPartitionedCall/tf_distil_bert_for_sequence_classification/distilbert/transformer/layer_._4/attention/strided_slice_3/stack", "op": "Const", "attr": {"dtype": {"type": "DT_INT32"}, "value": {"tensor": {"dtype": "DT_INT32", "tensorShape": {"dim": [{"size": "1"}]}}}}}, {"name": "StatefulPartitionedCall/tf_distil_bert_for_sequence_classification/distilbert/transformer/layer_._4/attention/strided_slice_3/stack_1", "op": "Const", "attr": {"value": {"tensor": {"dtype": "DT_INT32", "tensorShape": {"dim": [{"size": "1"}]}}}, "dtype": {"type": "DT_INT32"}}}, {"name": "StatefulPartitionedCall/tf_distil_bert_for_sequence_classification/distilbert/transformer/layer_._4/attention/strided_slice_3/stack_2", "op": "Const", "attr": {"dtype": {"type": "DT_INT32"}, "value": {"tensor": {"dtype": "DT_INT32", "tensorShape": {"dim": [{"size": "1"}]}}}}}, {"name": "StatefulPartitionedCall/tf_distil_bert_for_sequence_classification/distilbert/transformer/layer_._4/attention/v_lin/Tensordot/Const", "op": "Const", "attr": {"dtype": {"type": "DT_INT32"}, "value": {"tensor": {"dtype": "DT_INT32", "tensorShape": {"dim": [{"size": "1"}]}}}}}, {"name": "StatefulPartitionedCall/tf_distil_bert_for_sequence_classification/distilbert/transformer/layer_._4/attention/v_lin/Tensordot/axes", "op": "Const", "attr": {"value": {"tensor": {"dtype": "DT_INT32", "tensorShape": {"dim": [{"size": "1"}]}}}, "dtype": {"type": "DT_INT32"}}}, {"name": "StatefulPartitionedCall/tf_distil_bert_for_sequence_classification/distilbert/transformer/layer_._4/attention/v_lin/Tensordot/GatherV2_1/axis", "op": "Const", "attr": {"value": {"tensor": {"dtype": "DT_INT32", "tensorShape": {}}}, "dtype": {"type": "DT_INT32"}}}, {"name": "StatefulPartitionedCall/tf_distil_bert_for_sequence_classification/distilbert/transformer/layer_._4/attention/v_lin/Tensordot/Const_1", "op": "Const", "attr": {"dtype": {"type": "DT_INT32"}, "value": {"tensor": {"dtype": "DT_INT32", "tensorShape": {"dim": [{"size": "1"}]}}}}}, {"name": "StatefulPartitionedCall/tf_distil_bert_for_sequence_classification/distilbert/transformer/layer_._4/attention/v_lin/Tensordot/ReadVariableOp", "op": "Const", "attr": {"dtype": {"type": "DT_FLOAT"}, "value": {"tensor": {"dtype": "DT_FLOAT", "tensorShape": {"dim": [{"size": "768"}, {"size": "768"}]}}}}}, {"name": "StatefulPartitionedCall/tf_distil_bert_for_sequence_classification/distilbert/transformer/layer_._4/attention/v_lin/Tensordot/free", "op": "Const", "attr": {"dtype": {"type": "DT_INT32"}, "value": {"tensor": {"dtype": "DT_INT32", "tensorShape": {"dim": [{"size": "2"}]}}}}}, {"name": "StatefulPartitionedCall/tf_distil_bert_for_sequence_classification/distilbert/transformer/layer_._4/attention/v_lin/Tensordot/GatherV2/axis", "op": "Const", "attr": {"dtype": {"type": "DT_INT32"}, "value": {"tensor": {"dtype": "DT_INT32", "tensorShape": {}}}}}, {"name": "StatefulPartitionedCall/tf_distil_bert_for_sequence_classification/distilbert/transformer/layer_._4/attention/v_lin/Tensordot/Const_2", "op": "Const", "attr": {"value": {"tensor": {"dtype": "DT_INT32", "tensorShape": {"dim": [{"size": "1"}]}}}, "dtype": {"type": "DT_INT32"}}}, {"name": "StatefulPartitionedCall/tf_distil_bert_for_sequence_classification/distilbert/transformer/layer_._4/attention/v_lin/Tensordot/concat_1/axis", "op": "Const", "attr": {"dtype": {"type": "DT_INT32"}, "value": {"tensor": {"dtype": "DT_INT32", "tensorShape": {}}}}}, {"name": "StatefulPartitionedCall/tf_distil_bert_for_sequence_classification/distilbert/transformer/layer_._4/attention/v_lin/BiasAdd/ReadVariableOp", "op": "Const", "attr": {"value": {"tensor": {"dtype": "DT_FLOAT", "tensorShape": {"dim": [{"size": "768"}]}}}, "dtype": {"type": "DT_FLOAT"}}}, {"name": "StatefulPartitionedCall/tf_distil_bert_for_sequence_classification/distilbert/transformer/layer_._4/attention/Reshape_2/shape/1", "op": "Const", "attr": {"value": {"tensor": {"dtype": "DT_INT32", "tensorShape": {}}}, "dtype": {"type": "DT_INT32"}}}, {"name": "StatefulPartitionedCall/tf_distil_bert_for_sequence_classification/distilbert/transformer/layer_._4/attention/Reshape_2/shape/2", "op": "Const", "attr": {"value": {"tensor": {"dtype": "DT_INT32", "tensorShape": {}}}, "dtype": {"type": "DT_INT32"}}}, {"name": "StatefulPartitionedCall/tf_distil_bert_for_sequence_classification/distilbert/transformer/layer_._4/attention/Cast/x", "op": "Const", "attr": {"value": {"tensor": {"dtype": "DT_INT32", "tensorShape": {}}}, "dtype": {"type": "DT_INT32"}}}, {"name": "StatefulPartitionedCall/tf_distil_bert_for_sequence_classification/distilbert/transformer/layer_._4/attention/transpose_2/perm", "op": "Const", "attr": {"value": {"tensor": {"dtype": "DT_INT32", "tensorShape": {"dim": [{"size": "4"}]}}}, "dtype": {"type": "DT_INT32"}}}, {"name": "StatefulPartitionedCall/tf_distil_bert_for_sequence_classification/distilbert/transformer/layer_._4/attention/transpose_3/perm", "op": "Const", "attr": {"value": {"tensor": {"dtype": "DT_INT32", "tensorShape": {"dim": [{"size": "4"}]}}}, "dtype": {"type": "DT_INT32"}}}, {"name": "StatefulPartitionedCall/tf_distil_bert_for_sequence_classification/distilbert/transformer/layer_._4/attention/strided_slice/stack", "op": "Const", "attr": {"value": {"tensor": {"dtype": "DT_INT32", "tensorShape": {"dim": [{"size": "1"}]}}}, "dtype": {"type": "DT_INT32"}}}, {"name": "StatefulPartitionedCall/tf_distil_bert_for_sequence_classification/distilbert/transformer/layer_._4/attention/strided_slice/stack_1", "op": "Const", "attr": {"value": {"tensor": {"dtype": "DT_INT32", "tensorShape": {"dim": [{"size": "1"}]}}}, "dtype": {"type": "DT_INT32"}}}, {"name": "StatefulPartitionedCall/tf_distil_bert_for_sequence_classification/distilbert/transformer/layer_._4/attention/strided_slice/stack_2", "op": "Const", "attr": {"dtype": {"type": "DT_INT32"}, "value": {"tensor": {"dtype": "DT_INT32", "tensorShape": {"dim": [{"size": "1"}]}}}}}, {"name": "StatefulPartitionedCall/tf_distil_bert_for_sequence_classification/distilbert/transformer/layer_._4/attention/Reshape_4/shape/1", "op": "Const", "attr": {"value": {"tensor": {"dtype": "DT_INT32", "tensorShape": {}}}, "dtype": {"type": "DT_INT32"}}}, {"name": "StatefulPartitionedCall/tf_distil_bert_for_sequence_classification/distilbert/transformer/layer_._4/attention/mul_2", "op": "Const", "attr": {"value": {"tensor": {"dtype": "DT_INT32", "tensorShape": {}}}, "dtype": {"type": "DT_INT32"}}}, {"name": "StatefulPartitionedCall/tf_distil_bert_for_sequence_classification/distilbert/transformer/layer_._4/attention/out_lin/Tensordot/free", "op": "Const", "attr": {"value": {"tensor": {"dtype": "DT_INT32", "tensorShape": {"dim": [{"size": "2"}]}}}, "dtype": {"type": "DT_INT32"}}}, {"name": "StatefulPartitionedCall/tf_distil_bert_for_sequence_classification/distilbert/transformer/layer_._4/attention/out_lin/Tensordot/GatherV2/axis", "op": "Const", "attr": {"value": {"tensor": {"dtype": "DT_INT32", "tensorShape": {}}}, "dtype": {"type": "DT_INT32"}}}, {"name": "StatefulPartitionedCall/tf_distil_bert_for_sequence_classification/distilbert/transformer/layer_._4/attention/out_lin/Tensordot/Const_2", "op": "Const", "attr": {"dtype": {"type": "DT_INT32"}, "value": {"tensor": {"dtype": "DT_INT32", "tensorShape": {"dim": [{"size": "1"}]}}}}}, {"name": "StatefulPartitionedCall/tf_distil_bert_for_sequence_classification/distilbert/transformer/layer_._4/attention/out_lin/Tensordot/concat_1/axis", "op": "Const", "attr": {"dtype": {"type": "DT_INT32"}, "value": {"tensor": {"dtype": "DT_INT32", "tensorShape": {}}}}}, {"name": "StatefulPartitionedCall/tf_distil_bert_for_sequence_classification/distilbert/transformer/layer_._4/attention/out_lin/BiasAdd/ReadVariableOp", "op": "Const", "attr": {"value": {"tensor": {"dtype": "DT_FLOAT", "tensorShape": {"dim": [{"size": "768"}]}}}, "dtype": {"type": "DT_FLOAT"}}}, {"name": "StatefulPartitionedCall/tf_distil_bert_for_sequence_classification/distilbert/transformer/layer_._3/output_layer_norm/batchnorm/ReadVariableOp", "op": "Const", "attr": {"dtype": {"type": "DT_FLOAT"}, "value": {"tensor": {"dtype": "DT_FLOAT", "tensorShape": {"dim": [{"size": "768"}]}}}}}, {"name": "StatefulPartitionedCall/tf_distil_bert_for_sequence_classification/distilbert/transformer/layer_._3/ffn/lin2/Tensordot/Const", "op": "Const", "attr": {"value": {"tensor": {"dtype": "DT_INT32", "tensorShape": {"dim": [{"size": "1"}]}}}, "dtype": {"type": "DT_INT32"}}}, {"name": "StatefulPartitionedCall/tf_distil_bert_for_sequence_classification/distilbert/transformer/layer_._3/ffn/lin2/Tensordot/axes", "op": "Const", "attr": {"value": {"tensor": {"dtype": "DT_INT32", "tensorShape": {"dim": [{"size": "1"}]}}}, "dtype": {"type": "DT_INT32"}}}, {"name": "StatefulPartitionedCall/tf_distil_bert_for_sequence_classification/distilbert/transformer/layer_._3/ffn/lin2/Tensordot/GatherV2_1/axis", "op": "Const", "attr": {"value": {"tensor": {"dtype": "DT_INT32", "tensorShape": {}}}, "dtype": {"type": "DT_INT32"}}}, {"name": "StatefulPartitionedCall/tf_distil_bert_for_sequence_classification/distilbert/transformer/layer_._3/ffn/lin2/Tensordot/Const_1", "op": "Const", "attr": {"dtype": {"type": "DT_INT32"}, "value": {"tensor": {"dtype": "DT_INT32", "tensorShape": {"dim": [{"size": "1"}]}}}}}, {"name": "StatefulPartitionedCall/tf_distil_bert_for_sequence_classification/distilbert/transformer/layer_._3/ffn/lin2/Tensordot/ReadVariableOp", "op": "Const", "attr": {"dtype": {"type": "DT_FLOAT"}, "value": {"tensor": {"dtype": "DT_FLOAT", "tensorShape": {"dim": [{"size": "3072"}, {"size": "768"}]}}}}}, {"name": "StatefulPartitionedCall/tf_distil_bert_for_sequence_classification/distilbert/transformer/layer_._3/ffn/Gelu/mul/x", "op": "Const", "attr": {"dtype": {"type": "DT_FLOAT"}, "value": {"tensor": {"dtype": "DT_FLOAT", "tensorShape": {}}}}}, {"name": "StatefulPartitionedCall/tf_distil_bert_for_sequence_classification/distilbert/transformer/layer_._3/ffn/Gelu/add/x", "op": "Const", "attr": {"value": {"tensor": {"dtype": "DT_FLOAT", "tensorShape": {}}}, "dtype": {"type": "DT_FLOAT"}}}, {"name": "StatefulPartitionedCall/tf_distil_bert_for_sequence_classification/distilbert/transformer/layer_._3/ffn/lin1/Tensordot/Const", "op": "Const", "attr": {"value": {"tensor": {"dtype": "DT_INT32", "tensorShape": {"dim": [{"size": "1"}]}}}, "dtype": {"type": "DT_INT32"}}}, {"name": "StatefulPartitionedCall/tf_distil_bert_for_sequence_classification/distilbert/transformer/layer_._3/ffn/lin1/Tensordot/axes", "op": "Const", "attr": {"dtype": {"type": "DT_INT32"}, "value": {"tensor": {"dtype": "DT_INT32", "tensorShape": {"dim": [{"size": "1"}]}}}}}, {"name": "StatefulPartitionedCall/tf_distil_bert_for_sequence_classification/distilbert/transformer/layer_._3/ffn/lin1/Tensordot/GatherV2_1/axis", "op": "Const", "attr": {"dtype": {"type": "DT_INT32"}, "value": {"tensor": {"dtype": "DT_INT32", "tensorShape": {}}}}}, {"name": "StatefulPartitionedCall/tf_distil_bert_for_sequence_classification/distilbert/transformer/layer_._3/ffn/lin1/Tensordot/Const_1", "op": "Const", "attr": {"dtype": {"type": "DT_INT32"}, "value": {"tensor": {"dtype": "DT_INT32", "tensorShape": {"dim": [{"size": "1"}]}}}}}, {"name": "StatefulPartitionedCall/tf_distil_bert_for_sequence_classification/distilbert/transformer/layer_._3/ffn/lin1/Tensordot/ReadVariableOp", "op": "Const", "attr": {"dtype": {"type": "DT_FLOAT"}, "value": {"tensor": {"dtype": "DT_FLOAT", "tensorShape": {"dim": [{"size": "768"}, {"size": "3072"}]}}}}}, {"name": "StatefulPartitionedCall/tf_distil_bert_for_sequence_classification/distilbert/transformer/layer_._3/ffn/lin1/Tensordot/free", "op": "Const", "attr": {"dtype": {"type": "DT_INT32"}, "value": {"tensor": {"dtype": "DT_INT32", "tensorShape": {"dim": [{"size": "2"}]}}}}}, {"name": "StatefulPartitionedCall/tf_distil_bert_for_sequence_classification/distilbert/transformer/layer_._3/ffn/lin1/Tensordot/GatherV2/axis", "op": "Const", "attr": {"dtype": {"type": "DT_INT32"}, "value": {"tensor": {"dtype": "DT_INT32", "tensorShape": {}}}}}, {"name": "StatefulPartitionedCall/tf_distil_bert_for_sequence_classification/distilbert/transformer/layer_._3/ffn/lin1/Tensordot/Const_2", "op": "Const", "attr": {"value": {"tensor": {"dtype": "DT_INT32", "tensorShape": {"dim": [{"size": "1"}]}}}, "dtype": {"type": "DT_INT32"}}}, {"name": "StatefulPartitionedCall/tf_distil_bert_for_sequence_classification/distilbert/transformer/layer_._3/ffn/lin1/Tensordot/concat_1/axis", "op": "Const", "attr": {"value": {"tensor": {"dtype": "DT_INT32", "tensorShape": {}}}, "dtype": {"type": "DT_INT32"}}}, {"name": "StatefulPartitionedCall/tf_distil_bert_for_sequence_classification/distilbert/transformer/layer_._3/ffn/lin1/BiasAdd/ReadVariableOp", "op": "Const", "attr": {"dtype": {"type": "DT_FLOAT"}, "value": {"tensor": {"dtype": "DT_FLOAT", "tensorShape": {"dim": [{"size": "3072"}]}}}}}, {"name": "ConstantFolding/StatefulPartitionedCall/tf_distil_bert_for_sequence_classification/distilbert/transformer/layer_._3/ffn/Gelu/truediv_recip", "op": "Const", "attr": {"dtype": {"type": "DT_FLOAT"}, "value": {"tensor": {"dtype": "DT_FLOAT", "tensorShape": {}}}}}, {"name": "StatefulPartitionedCall/tf_distil_bert_for_sequence_classification/distilbert/transformer/layer_._3/ffn/lin2/Tensordot/free", "op": "Const", "attr": {"dtype": {"type": "DT_INT32"}, "value": {"tensor": {"dtype": "DT_INT32", "tensorShape": {"dim": [{"size": "2"}]}}}}}, {"name": "StatefulPartitionedCall/tf_distil_bert_for_sequence_classification/distilbert/transformer/layer_._3/ffn/lin2/Tensordot/GatherV2/axis", "op": "Const", "attr": {"value": {"tensor": {"dtype": "DT_INT32", "tensorShape": {}}}, "dtype": {"type": "DT_INT32"}}}, {"name": "StatefulPartitionedCall/tf_distil_bert_for_sequence_classification/distilbert/transformer/layer_._3/ffn/lin2/Tensordot/Const_2", "op": "Const", "attr": {"dtype": {"type": "DT_INT32"}, "value": {"tensor": {"dtype": "DT_INT32", "tensorShape": {"dim": [{"size": "1"}]}}}}}, {"name": "StatefulPartitionedCall/tf_distil_bert_for_sequence_classification/distilbert/transformer/layer_._3/ffn/lin2/Tensordot/concat_1/axis", "op": "Const", "attr": {"value": {"tensor": {"dtype": "DT_INT32", "tensorShape": {}}}, "dtype": {"type": "DT_INT32"}}}, {"name": "StatefulPartitionedCall/tf_distil_bert_for_sequence_classification/distilbert/transformer/layer_._3/ffn/lin2/BiasAdd/ReadVariableOp", "op": "Const", "attr": {"dtype": {"type": "DT_FLOAT"}, "value": {"tensor": {"dtype": "DT_FLOAT", "tensorShape": {"dim": [{"size": "768"}]}}}}}, {"name": "StatefulPartitionedCall/tf_distil_bert_for_sequence_classification/distilbert/transformer/layer_._3/sa_layer_norm/batchnorm/ReadVariableOp", "op": "Const", "attr": {"dtype": {"type": "DT_FLOAT"}, "value": {"tensor": {"dtype": "DT_FLOAT", "tensorShape": {"dim": [{"size": "768"}]}}}}}, {"name": "StatefulPartitionedCall/tf_distil_bert_for_sequence_classification/distilbert/transformer/layer_._3/attention/out_lin/Tensordot/Const", "op": "Const", "attr": {"dtype": {"type": "DT_INT32"}, "value": {"tensor": {"dtype": "DT_INT32", "tensorShape": {"dim": [{"size": "1"}]}}}}}, {"name": "StatefulPartitionedCall/tf_distil_bert_for_sequence_classification/distilbert/transformer/layer_._3/attention/out_lin/Tensordot/axes", "op": "Const", "attr": {"value": {"tensor": {"dtype": "DT_INT32", "tensorShape": {"dim": [{"size": "1"}]}}}, "dtype": {"type": "DT_INT32"}}}, {"name": "StatefulPartitionedCall/tf_distil_bert_for_sequence_classification/distilbert/transformer/layer_._3/attention/out_lin/Tensordot/GatherV2_1/axis", "op": "Const", "attr": {"dtype": {"type": "DT_INT32"}, "value": {"tensor": {"dtype": "DT_INT32", "tensorShape": {}}}}}, {"name": "StatefulPartitionedCall/tf_distil_bert_for_sequence_classification/distilbert/transformer/layer_._3/attention/out_lin/Tensordot/Const_1", "op": "Const", "attr": {"dtype": {"type": "DT_INT32"}, "value": {"tensor": {"dtype": "DT_INT32", "tensorShape": {"dim": [{"size": "1"}]}}}}}, {"name": "StatefulPartitionedCall/tf_distil_bert_for_sequence_classification/distilbert/transformer/layer_._3/attention/out_lin/Tensordot/ReadVariableOp", "op": "Const", "attr": {"value": {"tensor": {"dtype": "DT_FLOAT", "tensorShape": {"dim": [{"size": "768"}, {"size": "768"}]}}}, "dtype": {"type": "DT_FLOAT"}}}, {"name": "StatefulPartitionedCall/tf_distil_bert_for_sequence_classification/distilbert/transformer/layer_._3/attention/q_lin/Tensordot/Const", "op": "Const", "attr": {"value": {"tensor": {"dtype": "DT_INT32", "tensorShape": {"dim": [{"size": "1"}]}}}, "dtype": {"type": "DT_INT32"}}}, {"name": "StatefulPartitionedCall/tf_distil_bert_for_sequence_classification/distilbert/transformer/layer_._3/attention/q_lin/Tensordot/axes", "op": "Const", "attr": {"dtype": {"type": "DT_INT32"}, "value": {"tensor": {"dtype": "DT_INT32", "tensorShape": {"dim": [{"size": "1"}]}}}}}, {"name": "StatefulPartitionedCall/tf_distil_bert_for_sequence_classification/distilbert/transformer/layer_._3/attention/q_lin/Tensordot/GatherV2_1/axis", "op": "Const", "attr": {"value": {"tensor": {"dtype": "DT_INT32", "tensorShape": {}}}, "dtype": {"type": "DT_INT32"}}}, {"name": "StatefulPartitionedCall/tf_distil_bert_for_sequence_classification/distilbert/transformer/layer_._3/attention/q_lin/Tensordot/Const_1", "op": "Const", "attr": {"dtype": {"type": "DT_INT32"}, "value": {"tensor": {"dtype": "DT_INT32", "tensorShape": {"dim": [{"size": "1"}]}}}}}, {"name": "StatefulPartitionedCall/tf_distil_bert_for_sequence_classification/distilbert/transformer/layer_._3/attention/q_lin/Tensordot/ReadVariableOp", "op": "Const", "attr": {"dtype": {"type": "DT_FLOAT"}, "value": {"tensor": {"dtype": "DT_FLOAT", "tensorShape": {"dim": [{"size": "768"}, {"size": "768"}]}}}}}, {"name": "StatefulPartitionedCall/tf_distil_bert_for_sequence_classification/distilbert/transformer/layer_._3/attention/q_lin/Tensordot/free", "op": "Const", "attr": {"value": {"tensor": {"dtype": "DT_INT32", "tensorShape": {"dim": [{"size": "2"}]}}}, "dtype": {"type": "DT_INT32"}}}, {"name": "StatefulPartitionedCall/tf_distil_bert_for_sequence_classification/distilbert/transformer/layer_._3/attention/q_lin/Tensordot/GatherV2/axis", "op": "Const", "attr": {"dtype": {"type": "DT_INT32"}, "value": {"tensor": {"dtype": "DT_INT32", "tensorShape": {}}}}}, {"name": "StatefulPartitionedCall/tf_distil_bert_for_sequence_classification/distilbert/transformer/layer_._3/attention/q_lin/Tensordot/Const_2", "op": "Const", "attr": {"value": {"tensor": {"dtype": "DT_INT32", "tensorShape": {"dim": [{"size": "1"}]}}}, "dtype": {"type": "DT_INT32"}}}, {"name": "StatefulPartitionedCall/tf_distil_bert_for_sequence_classification/distilbert/transformer/layer_._3/attention/q_lin/Tensordot/concat_1/axis", "op": "Const", "attr": {"dtype": {"type": "DT_INT32"}, "value": {"tensor": {"dtype": "DT_INT32", "tensorShape": {}}}}}, {"name": "StatefulPartitionedCall/tf_distil_bert_for_sequence_classification/distilbert/transformer/layer_._3/attention/q_lin/BiasAdd/ReadVariableOp", "op": "Const", "attr": {"dtype": {"type": "DT_FLOAT"}, "value": {"tensor": {"dtype": "DT_FLOAT", "tensorShape": {"dim": [{"size": "768"}]}}}}}, {"name": "StatefulPartitionedCall/tf_distil_bert_for_sequence_classification/distilbert/transformer/layer_._3/attention/Reshape/shape/1", "op": "Const", "attr": {"value": {"tensor": {"dtype": "DT_INT32", "tensorShape": {}}}, "dtype": {"type": "DT_INT32"}}}, {"name": "StatefulPartitionedCall/tf_distil_bert_for_sequence_classification/distilbert/transformer/layer_._3/attention/Reshape/shape/2", "op": "Const", "attr": {"value": {"tensor": {"dtype": "DT_INT32", "tensorShape": {}}}, "dtype": {"type": "DT_INT32"}}}, {"name": "StatefulPartitionedCall/tf_distil_bert_for_sequence_classification/distilbert/transformer/layer_._3/attention/transpose/perm", "op": "Const", "attr": {"value": {"tensor": {"dtype": "DT_INT32", "tensorShape": {"dim": [{"size": "4"}]}}}, "dtype": {"type": "DT_INT32"}}}, {"name": "StatefulPartitionedCall/tf_distil_bert_for_sequence_classification/distilbert/transformer/layer_._3/attention/Rsqrt", "op": "Const", "attr": {"value": {"tensor": {"dtype": "DT_FLOAT", "tensorShape": {}}}, "dtype": {"type": "DT_FLOAT"}}}, {"name": "StatefulPartitionedCall/tf_distil_bert_for_sequence_classification/distilbert/transformer/layer_._3/attention/k_lin/Tensordot/Const", "op": "Const", "attr": {"value": {"tensor": {"dtype": "DT_INT32", "tensorShape": {"dim": [{"size": "1"}]}}}, "dtype": {"type": "DT_INT32"}}}, {"name": "StatefulPartitionedCall/tf_distil_bert_for_sequence_classification/distilbert/transformer/layer_._3/attention/k_lin/Tensordot/axes", "op": "Const", "attr": {"value": {"tensor": {"dtype": "DT_INT32", "tensorShape": {"dim": [{"size": "1"}]}}}, "dtype": {"type": "DT_INT32"}}}, {"name": "StatefulPartitionedCall/tf_distil_bert_for_sequence_classification/distilbert/transformer/layer_._3/attention/k_lin/Tensordot/GatherV2_1/axis", "op": "Const", "attr": {"dtype": {"type": "DT_INT32"}, "value": {"tensor": {"dtype": "DT_INT32", "tensorShape": {}}}}}, {"name": "StatefulPartitionedCall/tf_distil_bert_for_sequence_classification/distilbert/transformer/layer_._3/attention/k_lin/Tensordot/Const_1", "op": "Const", "attr": {"dtype": {"type": "DT_INT32"}, "value": {"tensor": {"dtype": "DT_INT32", "tensorShape": {"dim": [{"size": "1"}]}}}}}, {"name": "StatefulPartitionedCall/tf_distil_bert_for_sequence_classification/distilbert/transformer/layer_._3/attention/k_lin/Tensordot/ReadVariableOp", "op": "Const", "attr": {"dtype": {"type": "DT_FLOAT"}, "value": {"tensor": {"dtype": "DT_FLOAT", "tensorShape": {"dim": [{"size": "768"}, {"size": "768"}]}}}}}, {"name": "StatefulPartitionedCall/tf_distil_bert_for_sequence_classification/distilbert/transformer/layer_._3/attention/k_lin/Tensordot/free", "op": "Const", "attr": {"dtype": {"type": "DT_INT32"}, "value": {"tensor": {"dtype": "DT_INT32", "tensorShape": {"dim": [{"size": "2"}]}}}}}, {"name": "StatefulPartitionedCall/tf_distil_bert_for_sequence_classification/distilbert/transformer/layer_._3/attention/k_lin/Tensordot/GatherV2/axis", "op": "Const", "attr": {"dtype": {"type": "DT_INT32"}, "value": {"tensor": {"dtype": "DT_INT32", "tensorShape": {}}}}}, {"name": "StatefulPartitionedCall/tf_distil_bert_for_sequence_classification/distilbert/transformer/layer_._3/attention/k_lin/Tensordot/Const_2", "op": "Const", "attr": {"value": {"tensor": {"dtype": "DT_INT32", "tensorShape": {"dim": [{"size": "1"}]}}}, "dtype": {"type": "DT_INT32"}}}, {"name": "StatefulPartitionedCall/tf_distil_bert_for_sequence_classification/distilbert/transformer/layer_._3/attention/k_lin/Tensordot/concat_1/axis", "op": "Const", "attr": {"dtype": {"type": "DT_INT32"}, "value": {"tensor": {"dtype": "DT_INT32", "tensorShape": {}}}}}, {"name": "StatefulPartitionedCall/tf_distil_bert_for_sequence_classification/distilbert/transformer/layer_._3/attention/k_lin/BiasAdd/ReadVariableOp", "op": "Const", "attr": {"dtype": {"type": "DT_FLOAT"}, "value": {"tensor": {"dtype": "DT_FLOAT", "tensorShape": {"dim": [{"size": "768"}]}}}}}, {"name": "StatefulPartitionedCall/tf_distil_bert_for_sequence_classification/distilbert/transformer/layer_._3/attention/Reshape_1/shape/1", "op": "Const", "attr": {"value": {"tensor": {"dtype": "DT_INT32", "tensorShape": {}}}, "dtype": {"type": "DT_INT32"}}}, {"name": "StatefulPartitionedCall/tf_distil_bert_for_sequence_classification/distilbert/transformer/layer_._3/attention/Reshape_1/shape/2", "op": "Const", "attr": {"value": {"tensor": {"dtype": "DT_INT32", "tensorShape": {}}}, "dtype": {"type": "DT_INT32"}}}, {"name": "StatefulPartitionedCall/tf_distil_bert_for_sequence_classification/distilbert/transformer/layer_._3/attention/transpose_1/perm", "op": "Const", "attr": {"dtype": {"type": "DT_INT32"}, "value": {"tensor": {"dtype": "DT_INT32", "tensorShape": {"dim": [{"size": "4"}]}}}}}, {"name": "StatefulPartitionedCall/tf_distil_bert_for_sequence_classification/distilbert/transformer/layer_._3/attention/add/y", "op": "Const", "attr": {"value": {"tensor": {"dtype": "DT_FLOAT", "tensorShape": {}}}, "dtype": {"type": "DT_FLOAT"}}}, {"name": "StatefulPartitionedCall/tf_distil_bert_for_sequence_classification/distilbert/transformer/layer_._3/attention/mul_1/x", "op": "Const", "attr": {"value": {"tensor": {"dtype": "DT_FLOAT", "tensorShape": {}}}, "dtype": {"type": "DT_FLOAT"}}}, {"name": "StatefulPartitionedCall/tf_distil_bert_for_sequence_classification/distilbert/transformer/layer_._3/attention/sub/x", "op": "Const", "attr": {"dtype": {"type": "DT_FLOAT"}, "value": {"tensor": {"dtype": "DT_FLOAT", "tensorShape": {}}}}}, {"name": "StatefulPartitionedCall/tf_distil_bert_for_sequence_classification/distilbert/transformer/layer_._3/attention/Reshape_3/shape/1", "op": "Const", "attr": {"dtype": {"type": "DT_INT32"}, "value": {"tensor": {"dtype": "DT_INT32", "tensorShape": {}}}}}, {"name": "StatefulPartitionedCall/tf_distil_bert_for_sequence_classification/distilbert/transformer/layer_._3/attention/Reshape_3/shape/2", "op": "Const", "attr": {"value": {"tensor": {"dtype": "DT_INT32", "tensorShape": {}}}, "dtype": {"type": "DT_INT32"}}}, {"name": "StatefulPartitionedCall/tf_distil_bert_for_sequence_classification/distilbert/transformer/layer_._3/attention/strided_slice_3/stack", "op": "Const", "attr": {"value": {"tensor": {"dtype": "DT_INT32", "tensorShape": {"dim": [{"size": "1"}]}}}, "dtype": {"type": "DT_INT32"}}}, {"name": "StatefulPartitionedCall/tf_distil_bert_for_sequence_classification/distilbert/transformer/layer_._3/attention/strided_slice_3/stack_1", "op": "Const", "attr": {"value": {"tensor": {"dtype": "DT_INT32", "tensorShape": {"dim": [{"size": "1"}]}}}, "dtype": {"type": "DT_INT32"}}}, {"name": "StatefulPartitionedCall/tf_distil_bert_for_sequence_classification/distilbert/transformer/layer_._3/attention/strided_slice_3/stack_2", "op": "Const", "attr": {"dtype": {"type": "DT_INT32"}, "value": {"tensor": {"dtype": "DT_INT32", "tensorShape": {"dim": [{"size": "1"}]}}}}}, {"name": "StatefulPartitionedCall/tf_distil_bert_for_sequence_classification/distilbert/transformer/layer_._3/attention/v_lin/Tensordot/Const", "op": "Const", "attr": {"value": {"tensor": {"dtype": "DT_INT32", "tensorShape": {"dim": [{"size": "1"}]}}}, "dtype": {"type": "DT_INT32"}}}, {"name": "StatefulPartitionedCall/tf_distil_bert_for_sequence_classification/distilbert/transformer/layer_._3/attention/v_lin/Tensordot/axes", "op": "Const", "attr": {"value": {"tensor": {"dtype": "DT_INT32", "tensorShape": {"dim": [{"size": "1"}]}}}, "dtype": {"type": "DT_INT32"}}}, {"name": "StatefulPartitionedCall/tf_distil_bert_for_sequence_classification/distilbert/transformer/layer_._3/attention/v_lin/Tensordot/GatherV2_1/axis", "op": "Const", "attr": {"value": {"tensor": {"dtype": "DT_INT32", "tensorShape": {}}}, "dtype": {"type": "DT_INT32"}}}, {"name": "StatefulPartitionedCall/tf_distil_bert_for_sequence_classification/distilbert/transformer/layer_._3/attention/v_lin/Tensordot/Const_1", "op": "Const", "attr": {"value": {"tensor": {"dtype": "DT_INT32", "tensorShape": {"dim": [{"size": "1"}]}}}, "dtype": {"type": "DT_INT32"}}}, {"name": "StatefulPartitionedCall/tf_distil_bert_for_sequence_classification/distilbert/transformer/layer_._3/attention/v_lin/Tensordot/ReadVariableOp", "op": "Const", "attr": {"value": {"tensor": {"dtype": "DT_FLOAT", "tensorShape": {"dim": [{"size": "768"}, {"size": "768"}]}}}, "dtype": {"type": "DT_FLOAT"}}}, {"name": "StatefulPartitionedCall/tf_distil_bert_for_sequence_classification/distilbert/transformer/layer_._3/attention/v_lin/Tensordot/free", "op": "Const", "attr": {"dtype": {"type": "DT_INT32"}, "value": {"tensor": {"dtype": "DT_INT32", "tensorShape": {"dim": [{"size": "2"}]}}}}}, {"name": "StatefulPartitionedCall/tf_distil_bert_for_sequence_classification/distilbert/transformer/layer_._3/attention/v_lin/Tensordot/GatherV2/axis", "op": "Const", "attr": {"value": {"tensor": {"dtype": "DT_INT32", "tensorShape": {}}}, "dtype": {"type": "DT_INT32"}}}, {"name": "StatefulPartitionedCall/tf_distil_bert_for_sequence_classification/distilbert/transformer/layer_._3/attention/v_lin/Tensordot/Const_2", "op": "Const", "attr": {"value": {"tensor": {"dtype": "DT_INT32", "tensorShape": {"dim": [{"size": "1"}]}}}, "dtype": {"type": "DT_INT32"}}}, {"name": "StatefulPartitionedCall/tf_distil_bert_for_sequence_classification/distilbert/transformer/layer_._3/attention/v_lin/Tensordot/concat_1/axis", "op": "Const", "attr": {"value": {"tensor": {"dtype": "DT_INT32", "tensorShape": {}}}, "dtype": {"type": "DT_INT32"}}}, {"name": "StatefulPartitionedCall/tf_distil_bert_for_sequence_classification/distilbert/transformer/layer_._3/attention/v_lin/BiasAdd/ReadVariableOp", "op": "Const", "attr": {"value": {"tensor": {"dtype": "DT_FLOAT", "tensorShape": {"dim": [{"size": "768"}]}}}, "dtype": {"type": "DT_FLOAT"}}}, {"name": "StatefulPartitionedCall/tf_distil_bert_for_sequence_classification/distilbert/transformer/layer_._3/attention/Reshape_2/shape/1", "op": "Const", "attr": {"dtype": {"type": "DT_INT32"}, "value": {"tensor": {"dtype": "DT_INT32", "tensorShape": {}}}}}, {"name": "StatefulPartitionedCall/tf_distil_bert_for_sequence_classification/distilbert/transformer/layer_._3/attention/Reshape_2/shape/2", "op": "Const", "attr": {"value": {"tensor": {"dtype": "DT_INT32", "tensorShape": {}}}, "dtype": {"type": "DT_INT32"}}}, {"name": "StatefulPartitionedCall/tf_distil_bert_for_sequence_classification/distilbert/transformer/layer_._3/attention/Cast/x", "op": "Const", "attr": {"value": {"tensor": {"dtype": "DT_INT32", "tensorShape": {}}}, "dtype": {"type": "DT_INT32"}}}, {"name": "StatefulPartitionedCall/tf_distil_bert_for_sequence_classification/distilbert/transformer/layer_._3/attention/transpose_2/perm", "op": "Const", "attr": {"dtype": {"type": "DT_INT32"}, "value": {"tensor": {"dtype": "DT_INT32", "tensorShape": {"dim": [{"size": "4"}]}}}}}, {"name": "StatefulPartitionedCall/tf_distil_bert_for_sequence_classification/distilbert/transformer/layer_._3/attention/transpose_3/perm", "op": "Const", "attr": {"dtype": {"type": "DT_INT32"}, "value": {"tensor": {"dtype": "DT_INT32", "tensorShape": {"dim": [{"size": "4"}]}}}}}, {"name": "StatefulPartitionedCall/tf_distil_bert_for_sequence_classification/distilbert/transformer/layer_._3/attention/strided_slice/stack", "op": "Const", "attr": {"dtype": {"type": "DT_INT32"}, "value": {"tensor": {"dtype": "DT_INT32", "tensorShape": {"dim": [{"size": "1"}]}}}}}, {"name": "StatefulPartitionedCall/tf_distil_bert_for_sequence_classification/distilbert/transformer/layer_._3/attention/strided_slice/stack_1", "op": "Const", "attr": {"dtype": {"type": "DT_INT32"}, "value": {"tensor": {"dtype": "DT_INT32", "tensorShape": {"dim": [{"size": "1"}]}}}}}, {"name": "StatefulPartitionedCall/tf_distil_bert_for_sequence_classification/distilbert/transformer/layer_._3/attention/strided_slice/stack_2", "op": "Const", "attr": {"dtype": {"type": "DT_INT32"}, "value": {"tensor": {"dtype": "DT_INT32", "tensorShape": {"dim": [{"size": "1"}]}}}}}, {"name": "StatefulPartitionedCall/tf_distil_bert_for_sequence_classification/distilbert/transformer/layer_._3/attention/Reshape_4/shape/1", "op": "Const", "attr": {"value": {"tensor": {"dtype": "DT_INT32", "tensorShape": {}}}, "dtype": {"type": "DT_INT32"}}}, {"name": "StatefulPartitionedCall/tf_distil_bert_for_sequence_classification/distilbert/transformer/layer_._3/attention/mul_2", "op": "Const", "attr": {"value": {"tensor": {"dtype": "DT_INT32", "tensorShape": {}}}, "dtype": {"type": "DT_INT32"}}}, {"name": "StatefulPartitionedCall/tf_distil_bert_for_sequence_classification/distilbert/transformer/layer_._3/attention/out_lin/Tensordot/free", "op": "Const", "attr": {"dtype": {"type": "DT_INT32"}, "value": {"tensor": {"dtype": "DT_INT32", "tensorShape": {"dim": [{"size": "2"}]}}}}}, {"name": "StatefulPartitionedCall/tf_distil_bert_for_sequence_classification/distilbert/transformer/layer_._3/attention/out_lin/Tensordot/GatherV2/axis", "op": "Const", "attr": {"dtype": {"type": "DT_INT32"}, "value": {"tensor": {"dtype": "DT_INT32", "tensorShape": {}}}}}, {"name": "StatefulPartitionedCall/tf_distil_bert_for_sequence_classification/distilbert/transformer/layer_._3/attention/out_lin/Tensordot/Const_2", "op": "Const", "attr": {"value": {"tensor": {"dtype": "DT_INT32", "tensorShape": {"dim": [{"size": "1"}]}}}, "dtype": {"type": "DT_INT32"}}}, {"name": "StatefulPartitionedCall/tf_distil_bert_for_sequence_classification/distilbert/transformer/layer_._3/attention/out_lin/Tensordot/concat_1/axis", "op": "Const", "attr": {"dtype": {"type": "DT_INT32"}, "value": {"tensor": {"dtype": "DT_INT32", "tensorShape": {}}}}}, {"name": "StatefulPartitionedCall/tf_distil_bert_for_sequence_classification/distilbert/transformer/layer_._3/attention/out_lin/BiasAdd/ReadVariableOp", "op": "Const", "attr": {"dtype": {"type": "DT_FLOAT"}, "value": {"tensor": {"dtype": "DT_FLOAT", "tensorShape": {"dim": [{"size": "768"}]}}}}}, {"name": "StatefulPartitionedCall/tf_distil_bert_for_sequence_classification/distilbert/transformer/layer_._2/output_layer_norm/batchnorm/ReadVariableOp", "op": "Const", "attr": {"dtype": {"type": "DT_FLOAT"}, "value": {"tensor": {"dtype": "DT_FLOAT", "tensorShape": {"dim": [{"size": "768"}]}}}}}, {"name": "StatefulPartitionedCall/tf_distil_bert_for_sequence_classification/distilbert/transformer/layer_._2/ffn/lin2/Tensordot/Const", "op": "Const", "attr": {"value": {"tensor": {"dtype": "DT_INT32", "tensorShape": {"dim": [{"size": "1"}]}}}, "dtype": {"type": "DT_INT32"}}}, {"name": "StatefulPartitionedCall/tf_distil_bert_for_sequence_classification/distilbert/transformer/layer_._2/ffn/lin2/Tensordot/axes", "op": "Const", "attr": {"dtype": {"type": "DT_INT32"}, "value": {"tensor": {"dtype": "DT_INT32", "tensorShape": {"dim": [{"size": "1"}]}}}}}, {"name": "StatefulPartitionedCall/tf_distil_bert_for_sequence_classification/distilbert/transformer/layer_._2/ffn/lin2/Tensordot/GatherV2_1/axis", "op": "Const", "attr": {"value": {"tensor": {"dtype": "DT_INT32", "tensorShape": {}}}, "dtype": {"type": "DT_INT32"}}}, {"name": "StatefulPartitionedCall/tf_distil_bert_for_sequence_classification/distilbert/transformer/layer_._2/ffn/lin2/Tensordot/Const_1", "op": "Const", "attr": {"dtype": {"type": "DT_INT32"}, "value": {"tensor": {"dtype": "DT_INT32", "tensorShape": {"dim": [{"size": "1"}]}}}}}, {"name": "StatefulPartitionedCall/tf_distil_bert_for_sequence_classification/distilbert/transformer/layer_._2/ffn/lin2/Tensordot/ReadVariableOp", "op": "Const", "attr": {"value": {"tensor": {"dtype": "DT_FLOAT", "tensorShape": {"dim": [{"size": "3072"}, {"size": "768"}]}}}, "dtype": {"type": "DT_FLOAT"}}}, {"name": "StatefulPartitionedCall/tf_distil_bert_for_sequence_classification/distilbert/transformer/layer_._2/ffn/Gelu/mul/x", "op": "Const", "attr": {"value": {"tensor": {"dtype": "DT_FLOAT", "tensorShape": {}}}, "dtype": {"type": "DT_FLOAT"}}}, {"name": "StatefulPartitionedCall/tf_distil_bert_for_sequence_classification/distilbert/transformer/layer_._2/ffn/Gelu/add/x", "op": "Const", "attr": {"dtype": {"type": "DT_FLOAT"}, "value": {"tensor": {"dtype": "DT_FLOAT", "tensorShape": {}}}}}, {"name": "StatefulPartitionedCall/tf_distil_bert_for_sequence_classification/distilbert/transformer/layer_._2/ffn/lin1/Tensordot/Const", "op": "Const", "attr": {"value": {"tensor": {"dtype": "DT_INT32", "tensorShape": {"dim": [{"size": "1"}]}}}, "dtype": {"type": "DT_INT32"}}}, {"name": "StatefulPartitionedCall/tf_distil_bert_for_sequence_classification/distilbert/transformer/layer_._2/ffn/lin1/Tensordot/axes", "op": "Const", "attr": {"dtype": {"type": "DT_INT32"}, "value": {"tensor": {"dtype": "DT_INT32", "tensorShape": {"dim": [{"size": "1"}]}}}}}, {"name": "StatefulPartitionedCall/tf_distil_bert_for_sequence_classification/distilbert/transformer/layer_._2/ffn/lin1/Tensordot/GatherV2_1/axis", "op": "Const", "attr": {"dtype": {"type": "DT_INT32"}, "value": {"tensor": {"dtype": "DT_INT32", "tensorShape": {}}}}}, {"name": "StatefulPartitionedCall/tf_distil_bert_for_sequence_classification/distilbert/transformer/layer_._2/ffn/lin1/Tensordot/Const_1", "op": "Const", "attr": {"value": {"tensor": {"dtype": "DT_INT32", "tensorShape": {"dim": [{"size": "1"}]}}}, "dtype": {"type": "DT_INT32"}}}, {"name": "StatefulPartitionedCall/tf_distil_bert_for_sequence_classification/distilbert/transformer/layer_._2/ffn/lin1/Tensordot/ReadVariableOp", "op": "Const", "attr": {"value": {"tensor": {"dtype": "DT_FLOAT", "tensorShape": {"dim": [{"size": "768"}, {"size": "3072"}]}}}, "dtype": {"type": "DT_FLOAT"}}}, {"name": "StatefulPartitionedCall/tf_distil_bert_for_sequence_classification/distilbert/transformer/layer_._2/ffn/lin1/Tensordot/free", "op": "Const", "attr": {"dtype": {"type": "DT_INT32"}, "value": {"tensor": {"dtype": "DT_INT32", "tensorShape": {"dim": [{"size": "2"}]}}}}}, {"name": "StatefulPartitionedCall/tf_distil_bert_for_sequence_classification/distilbert/transformer/layer_._2/ffn/lin1/Tensordot/GatherV2/axis", "op": "Const", "attr": {"dtype": {"type": "DT_INT32"}, "value": {"tensor": {"dtype": "DT_INT32", "tensorShape": {}}}}}, {"name": "StatefulPartitionedCall/tf_distil_bert_for_sequence_classification/distilbert/transformer/layer_._2/ffn/lin1/Tensordot/Const_2", "op": "Const", "attr": {"value": {"tensor": {"dtype": "DT_INT32", "tensorShape": {"dim": [{"size": "1"}]}}}, "dtype": {"type": "DT_INT32"}}}, {"name": "StatefulPartitionedCall/tf_distil_bert_for_sequence_classification/distilbert/transformer/layer_._2/ffn/lin1/Tensordot/concat_1/axis", "op": "Const", "attr": {"value": {"tensor": {"dtype": "DT_INT32", "tensorShape": {}}}, "dtype": {"type": "DT_INT32"}}}, {"name": "StatefulPartitionedCall/tf_distil_bert_for_sequence_classification/distilbert/transformer/layer_._2/ffn/lin1/BiasAdd/ReadVariableOp", "op": "Const", "attr": {"dtype": {"type": "DT_FLOAT"}, "value": {"tensor": {"dtype": "DT_FLOAT", "tensorShape": {"dim": [{"size": "3072"}]}}}}}, {"name": "ConstantFolding/StatefulPartitionedCall/tf_distil_bert_for_sequence_classification/distilbert/transformer/layer_._2/ffn/Gelu/truediv_recip", "op": "Const", "attr": {"value": {"tensor": {"dtype": "DT_FLOAT", "tensorShape": {}}}, "dtype": {"type": "DT_FLOAT"}}}, {"name": "StatefulPartitionedCall/tf_distil_bert_for_sequence_classification/distilbert/transformer/layer_._2/ffn/lin2/Tensordot/free", "op": "Const", "attr": {"value": {"tensor": {"dtype": "DT_INT32", "tensorShape": {"dim": [{"size": "2"}]}}}, "dtype": {"type": "DT_INT32"}}}, {"name": "StatefulPartitionedCall/tf_distil_bert_for_sequence_classification/distilbert/transformer/layer_._2/ffn/lin2/Tensordot/GatherV2/axis", "op": "Const", "attr": {"dtype": {"type": "DT_INT32"}, "value": {"tensor": {"dtype": "DT_INT32", "tensorShape": {}}}}}, {"name": "StatefulPartitionedCall/tf_distil_bert_for_sequence_classification/distilbert/transformer/layer_._2/ffn/lin2/Tensordot/Const_2", "op": "Const", "attr": {"dtype": {"type": "DT_INT32"}, "value": {"tensor": {"dtype": "DT_INT32", "tensorShape": {"dim": [{"size": "1"}]}}}}}, {"name": "StatefulPartitionedCall/tf_distil_bert_for_sequence_classification/distilbert/transformer/layer_._2/ffn/lin2/Tensordot/concat_1/axis", "op": "Const", "attr": {"value": {"tensor": {"dtype": "DT_INT32", "tensorShape": {}}}, "dtype": {"type": "DT_INT32"}}}, {"name": "StatefulPartitionedCall/tf_distil_bert_for_sequence_classification/distilbert/transformer/layer_._2/ffn/lin2/BiasAdd/ReadVariableOp", "op": "Const", "attr": {"dtype": {"type": "DT_FLOAT"}, "value": {"tensor": {"dtype": "DT_FLOAT", "tensorShape": {"dim": [{"size": "768"}]}}}}}, {"name": "StatefulPartitionedCall/tf_distil_bert_for_sequence_classification/distilbert/transformer/layer_._2/sa_layer_norm/batchnorm/ReadVariableOp", "op": "Const", "attr": {"dtype": {"type": "DT_FLOAT"}, "value": {"tensor": {"dtype": "DT_FLOAT", "tensorShape": {"dim": [{"size": "768"}]}}}}}, {"name": "StatefulPartitionedCall/tf_distil_bert_for_sequence_classification/distilbert/transformer/layer_._2/attention/out_lin/Tensordot/Const", "op": "Const", "attr": {"dtype": {"type": "DT_INT32"}, "value": {"tensor": {"dtype": "DT_INT32", "tensorShape": {"dim": [{"size": "1"}]}}}}}, {"name": "StatefulPartitionedCall/tf_distil_bert_for_sequence_classification/distilbert/transformer/layer_._2/attention/out_lin/Tensordot/axes", "op": "Const", "attr": {"value": {"tensor": {"dtype": "DT_INT32", "tensorShape": {"dim": [{"size": "1"}]}}}, "dtype": {"type": "DT_INT32"}}}, {"name": "StatefulPartitionedCall/tf_distil_bert_for_sequence_classification/distilbert/transformer/layer_._2/attention/out_lin/Tensordot/GatherV2_1/axis", "op": "Const", "attr": {"value": {"tensor": {"dtype": "DT_INT32", "tensorShape": {}}}, "dtype": {"type": "DT_INT32"}}}, {"name": "StatefulPartitionedCall/tf_distil_bert_for_sequence_classification/distilbert/transformer/layer_._2/attention/out_lin/Tensordot/Const_1", "op": "Const", "attr": {"value": {"tensor": {"dtype": "DT_INT32", "tensorShape": {"dim": [{"size": "1"}]}}}, "dtype": {"type": "DT_INT32"}}}, {"name": "StatefulPartitionedCall/tf_distil_bert_for_sequence_classification/distilbert/transformer/layer_._2/attention/out_lin/Tensordot/ReadVariableOp", "op": "Const", "attr": {"value": {"tensor": {"dtype": "DT_FLOAT", "tensorShape": {"dim": [{"size": "768"}, {"size": "768"}]}}}, "dtype": {"type": "DT_FLOAT"}}}, {"name": "StatefulPartitionedCall/tf_distil_bert_for_sequence_classification/distilbert/transformer/layer_._2/attention/q_lin/Tensordot/Const", "op": "Const", "attr": {"dtype": {"type": "DT_INT32"}, "value": {"tensor": {"dtype": "DT_INT32", "tensorShape": {"dim": [{"size": "1"}]}}}}}, {"name": "StatefulPartitionedCall/tf_distil_bert_for_sequence_classification/distilbert/transformer/layer_._2/attention/q_lin/Tensordot/axes", "op": "Const", "attr": {"dtype": {"type": "DT_INT32"}, "value": {"tensor": {"dtype": "DT_INT32", "tensorShape": {"dim": [{"size": "1"}]}}}}}, {"name": "StatefulPartitionedCall/tf_distil_bert_for_sequence_classification/distilbert/transformer/layer_._2/attention/q_lin/Tensordot/GatherV2_1/axis", "op": "Const", "attr": {"dtype": {"type": "DT_INT32"}, "value": {"tensor": {"dtype": "DT_INT32", "tensorShape": {}}}}}, {"name": "StatefulPartitionedCall/tf_distil_bert_for_sequence_classification/distilbert/transformer/layer_._2/attention/q_lin/Tensordot/Const_1", "op": "Const", "attr": {"dtype": {"type": "DT_INT32"}, "value": {"tensor": {"dtype": "DT_INT32", "tensorShape": {"dim": [{"size": "1"}]}}}}}, {"name": "StatefulPartitionedCall/tf_distil_bert_for_sequence_classification/distilbert/transformer/layer_._2/attention/q_lin/Tensordot/ReadVariableOp", "op": "Const", "attr": {"value": {"tensor": {"dtype": "DT_FLOAT", "tensorShape": {"dim": [{"size": "768"}, {"size": "768"}]}}}, "dtype": {"type": "DT_FLOAT"}}}, {"name": "StatefulPartitionedCall/tf_distil_bert_for_sequence_classification/distilbert/transformer/layer_._2/attention/q_lin/Tensordot/free", "op": "Const", "attr": {"dtype": {"type": "DT_INT32"}, "value": {"tensor": {"dtype": "DT_INT32", "tensorShape": {"dim": [{"size": "2"}]}}}}}, {"name": "StatefulPartitionedCall/tf_distil_bert_for_sequence_classification/distilbert/transformer/layer_._2/attention/q_lin/Tensordot/GatherV2/axis", "op": "Const", "attr": {"value": {"tensor": {"dtype": "DT_INT32", "tensorShape": {}}}, "dtype": {"type": "DT_INT32"}}}, {"name": "StatefulPartitionedCall/tf_distil_bert_for_sequence_classification/distilbert/transformer/layer_._2/attention/q_lin/Tensordot/Const_2", "op": "Const", "attr": {"value": {"tensor": {"dtype": "DT_INT32", "tensorShape": {"dim": [{"size": "1"}]}}}, "dtype": {"type": "DT_INT32"}}}, {"name": "StatefulPartitionedCall/tf_distil_bert_for_sequence_classification/distilbert/transformer/layer_._2/attention/q_lin/Tensordot/concat_1/axis", "op": "Const", "attr": {"dtype": {"type": "DT_INT32"}, "value": {"tensor": {"dtype": "DT_INT32", "tensorShape": {}}}}}, {"name": "StatefulPartitionedCall/tf_distil_bert_for_sequence_classification/distilbert/transformer/layer_._2/attention/q_lin/BiasAdd/ReadVariableOp", "op": "Const", "attr": {"dtype": {"type": "DT_FLOAT"}, "value": {"tensor": {"dtype": "DT_FLOAT", "tensorShape": {"dim": [{"size": "768"}]}}}}}, {"name": "StatefulPartitionedCall/tf_distil_bert_for_sequence_classification/distilbert/transformer/layer_._2/attention/Reshape/shape/1", "op": "Const", "attr": {"value": {"tensor": {"dtype": "DT_INT32", "tensorShape": {}}}, "dtype": {"type": "DT_INT32"}}}, {"name": "StatefulPartitionedCall/tf_distil_bert_for_sequence_classification/distilbert/transformer/layer_._2/attention/Reshape/shape/2", "op": "Const", "attr": {"dtype": {"type": "DT_INT32"}, "value": {"tensor": {"dtype": "DT_INT32", "tensorShape": {}}}}}, {"name": "StatefulPartitionedCall/tf_distil_bert_for_sequence_classification/distilbert/transformer/layer_._2/attention/transpose/perm", "op": "Const", "attr": {"value": {"tensor": {"dtype": "DT_INT32", "tensorShape": {"dim": [{"size": "4"}]}}}, "dtype": {"type": "DT_INT32"}}}, {"name": "StatefulPartitionedCall/tf_distil_bert_for_sequence_classification/distilbert/transformer/layer_._2/attention/Rsqrt", "op": "Const", "attr": {"dtype": {"type": "DT_FLOAT"}, "value": {"tensor": {"dtype": "DT_FLOAT", "tensorShape": {}}}}}, {"name": "StatefulPartitionedCall/tf_distil_bert_for_sequence_classification/distilbert/transformer/layer_._2/attention/k_lin/Tensordot/Const", "op": "Const", "attr": {"value": {"tensor": {"dtype": "DT_INT32", "tensorShape": {"dim": [{"size": "1"}]}}}, "dtype": {"type": "DT_INT32"}}}, {"name": "StatefulPartitionedCall/tf_distil_bert_for_sequence_classification/distilbert/transformer/layer_._2/attention/k_lin/Tensordot/axes", "op": "Const", "attr": {"value": {"tensor": {"dtype": "DT_INT32", "tensorShape": {"dim": [{"size": "1"}]}}}, "dtype": {"type": "DT_INT32"}}}, {"name": "StatefulPartitionedCall/tf_distil_bert_for_sequence_classification/distilbert/transformer/layer_._2/attention/k_lin/Tensordot/GatherV2_1/axis", "op": "Const", "attr": {"dtype": {"type": "DT_INT32"}, "value": {"tensor": {"dtype": "DT_INT32", "tensorShape": {}}}}}, {"name": "StatefulPartitionedCall/tf_distil_bert_for_sequence_classification/distilbert/transformer/layer_._2/attention/k_lin/Tensordot/Const_1", "op": "Const", "attr": {"dtype": {"type": "DT_INT32"}, "value": {"tensor": {"dtype": "DT_INT32", "tensorShape": {"dim": [{"size": "1"}]}}}}}, {"name": "StatefulPartitionedCall/tf_distil_bert_for_sequence_classification/distilbert/transformer/layer_._2/attention/k_lin/Tensordot/ReadVariableOp", "op": "Const", "attr": {"value": {"tensor": {"dtype": "DT_FLOAT", "tensorShape": {"dim": [{"size": "768"}, {"size": "768"}]}}}, "dtype": {"type": "DT_FLOAT"}}}, {"name": "StatefulPartitionedCall/tf_distil_bert_for_sequence_classification/distilbert/transformer/layer_._2/attention/k_lin/Tensordot/free", "op": "Const", "attr": {"dtype": {"type": "DT_INT32"}, "value": {"tensor": {"dtype": "DT_INT32", "tensorShape": {"dim": [{"size": "2"}]}}}}}, {"name": "StatefulPartitionedCall/tf_distil_bert_for_sequence_classification/distilbert/transformer/layer_._2/attention/k_lin/Tensordot/GatherV2/axis", "op": "Const", "attr": {"dtype": {"type": "DT_INT32"}, "value": {"tensor": {"dtype": "DT_INT32", "tensorShape": {}}}}}, {"name": "StatefulPartitionedCall/tf_distil_bert_for_sequence_classification/distilbert/transformer/layer_._2/attention/k_lin/Tensordot/Const_2", "op": "Const", "attr": {"dtype": {"type": "DT_INT32"}, "value": {"tensor": {"dtype": "DT_INT32", "tensorShape": {"dim": [{"size": "1"}]}}}}}, {"name": "StatefulPartitionedCall/tf_distil_bert_for_sequence_classification/distilbert/transformer/layer_._2/attention/k_lin/Tensordot/concat_1/axis", "op": "Const", "attr": {"dtype": {"type": "DT_INT32"}, "value": {"tensor": {"dtype": "DT_INT32", "tensorShape": {}}}}}, {"name": "StatefulPartitionedCall/tf_distil_bert_for_sequence_classification/distilbert/transformer/layer_._2/attention/k_lin/BiasAdd/ReadVariableOp", "op": "Const", "attr": {"value": {"tensor": {"dtype": "DT_FLOAT", "tensorShape": {"dim": [{"size": "768"}]}}}, "dtype": {"type": "DT_FLOAT"}}}, {"name": "StatefulPartitionedCall/tf_distil_bert_for_sequence_classification/distilbert/transformer/layer_._2/attention/Reshape_1/shape/1", "op": "Const", "attr": {"dtype": {"type": "DT_INT32"}, "value": {"tensor": {"dtype": "DT_INT32", "tensorShape": {}}}}}, {"name": "StatefulPartitionedCall/tf_distil_bert_for_sequence_classification/distilbert/transformer/layer_._2/attention/Reshape_1/shape/2", "op": "Const", "attr": {"dtype": {"type": "DT_INT32"}, "value": {"tensor": {"dtype": "DT_INT32", "tensorShape": {}}}}}, {"name": "StatefulPartitionedCall/tf_distil_bert_for_sequence_classification/distilbert/transformer/layer_._2/attention/transpose_1/perm", "op": "Const", "attr": {"value": {"tensor": {"dtype": "DT_INT32", "tensorShape": {"dim": [{"size": "4"}]}}}, "dtype": {"type": "DT_INT32"}}}, {"name": "StatefulPartitionedCall/tf_distil_bert_for_sequence_classification/distilbert/transformer/layer_._2/attention/add/y", "op": "Const", "attr": {"value": {"tensor": {"dtype": "DT_FLOAT", "tensorShape": {}}}, "dtype": {"type": "DT_FLOAT"}}}, {"name": "StatefulPartitionedCall/tf_distil_bert_for_sequence_classification/distilbert/transformer/layer_._2/attention/mul_1/x", "op": "Const", "attr": {"value": {"tensor": {"dtype": "DT_FLOAT", "tensorShape": {}}}, "dtype": {"type": "DT_FLOAT"}}}, {"name": "StatefulPartitionedCall/tf_distil_bert_for_sequence_classification/distilbert/transformer/layer_._2/attention/sub/x", "op": "Const", "attr": {"value": {"tensor": {"dtype": "DT_FLOAT", "tensorShape": {}}}, "dtype": {"type": "DT_FLOAT"}}}, {"name": "StatefulPartitionedCall/tf_distil_bert_for_sequence_classification/distilbert/transformer/layer_._2/attention/Reshape_3/shape/1", "op": "Const", "attr": {"dtype": {"type": "DT_INT32"}, "value": {"tensor": {"dtype": "DT_INT32", "tensorShape": {}}}}}, {"name": "StatefulPartitionedCall/tf_distil_bert_for_sequence_classification/distilbert/transformer/layer_._2/attention/Reshape_3/shape/2", "op": "Const", "attr": {"value": {"tensor": {"dtype": "DT_INT32", "tensorShape": {}}}, "dtype": {"type": "DT_INT32"}}}, {"name": "StatefulPartitionedCall/tf_distil_bert_for_sequence_classification/distilbert/transformer/layer_._2/attention/strided_slice_3/stack", "op": "Const", "attr": {"dtype": {"type": "DT_INT32"}, "value": {"tensor": {"dtype": "DT_INT32", "tensorShape": {"dim": [{"size": "1"}]}}}}}, {"name": "StatefulPartitionedCall/tf_distil_bert_for_sequence_classification/distilbert/transformer/layer_._2/attention/strided_slice_3/stack_1", "op": "Const", "attr": {"dtype": {"type": "DT_INT32"}, "value": {"tensor": {"dtype": "DT_INT32", "tensorShape": {"dim": [{"size": "1"}]}}}}}, {"name": "StatefulPartitionedCall/tf_distil_bert_for_sequence_classification/distilbert/transformer/layer_._2/attention/strided_slice_3/stack_2", "op": "Const", "attr": {"dtype": {"type": "DT_INT32"}, "value": {"tensor": {"dtype": "DT_INT32", "tensorShape": {"dim": [{"size": "1"}]}}}}}, {"name": "StatefulPartitionedCall/tf_distil_bert_for_sequence_classification/distilbert/transformer/layer_._2/attention/v_lin/Tensordot/Const", "op": "Const", "attr": {"value": {"tensor": {"dtype": "DT_INT32", "tensorShape": {"dim": [{"size": "1"}]}}}, "dtype": {"type": "DT_INT32"}}}, {"name": "StatefulPartitionedCall/tf_distil_bert_for_sequence_classification/distilbert/transformer/layer_._2/attention/v_lin/Tensordot/axes", "op": "Const", "attr": {"dtype": {"type": "DT_INT32"}, "value": {"tensor": {"dtype": "DT_INT32", "tensorShape": {"dim": [{"size": "1"}]}}}}}, {"name": "StatefulPartitionedCall/tf_distil_bert_for_sequence_classification/distilbert/transformer/layer_._2/attention/v_lin/Tensordot/GatherV2_1/axis", "op": "Const", "attr": {"dtype": {"type": "DT_INT32"}, "value": {"tensor": {"dtype": "DT_INT32", "tensorShape": {}}}}}, {"name": "StatefulPartitionedCall/tf_distil_bert_for_sequence_classification/distilbert/transformer/layer_._2/attention/v_lin/Tensordot/Const_1", "op": "Const", "attr": {"value": {"tensor": {"dtype": "DT_INT32", "tensorShape": {"dim": [{"size": "1"}]}}}, "dtype": {"type": "DT_INT32"}}}, {"name": "StatefulPartitionedCall/tf_distil_bert_for_sequence_classification/distilbert/transformer/layer_._2/attention/v_lin/Tensordot/ReadVariableOp", "op": "Const", "attr": {"value": {"tensor": {"dtype": "DT_FLOAT", "tensorShape": {"dim": [{"size": "768"}, {"size": "768"}]}}}, "dtype": {"type": "DT_FLOAT"}}}, {"name": "StatefulPartitionedCall/tf_distil_bert_for_sequence_classification/distilbert/transformer/layer_._2/attention/v_lin/Tensordot/free", "op": "Const", "attr": {"value": {"tensor": {"dtype": "DT_INT32", "tensorShape": {"dim": [{"size": "2"}]}}}, "dtype": {"type": "DT_INT32"}}}, {"name": "StatefulPartitionedCall/tf_distil_bert_for_sequence_classification/distilbert/transformer/layer_._2/attention/v_lin/Tensordot/GatherV2/axis", "op": "Const", "attr": {"value": {"tensor": {"dtype": "DT_INT32", "tensorShape": {}}}, "dtype": {"type": "DT_INT32"}}}, {"name": "StatefulPartitionedCall/tf_distil_bert_for_sequence_classification/distilbert/transformer/layer_._2/attention/v_lin/Tensordot/Const_2", "op": "Const", "attr": {"dtype": {"type": "DT_INT32"}, "value": {"tensor": {"dtype": "DT_INT32", "tensorShape": {"dim": [{"size": "1"}]}}}}}, {"name": "StatefulPartitionedCall/tf_distil_bert_for_sequence_classification/distilbert/transformer/layer_._2/attention/v_lin/Tensordot/concat_1/axis", "op": "Const", "attr": {"value": {"tensor": {"dtype": "DT_INT32", "tensorShape": {}}}, "dtype": {"type": "DT_INT32"}}}, {"name": "StatefulPartitionedCall/tf_distil_bert_for_sequence_classification/distilbert/transformer/layer_._2/attention/v_lin/BiasAdd/ReadVariableOp", "op": "Const", "attr": {"dtype": {"type": "DT_FLOAT"}, "value": {"tensor": {"dtype": "DT_FLOAT", "tensorShape": {"dim": [{"size": "768"}]}}}}}, {"name": "StatefulPartitionedCall/tf_distil_bert_for_sequence_classification/distilbert/transformer/layer_._2/attention/Reshape_2/shape/1", "op": "Const", "attr": {"value": {"tensor": {"dtype": "DT_INT32", "tensorShape": {}}}, "dtype": {"type": "DT_INT32"}}}, {"name": "StatefulPartitionedCall/tf_distil_bert_for_sequence_classification/distilbert/transformer/layer_._2/attention/Reshape_2/shape/2", "op": "Const", "attr": {"value": {"tensor": {"dtype": "DT_INT32", "tensorShape": {}}}, "dtype": {"type": "DT_INT32"}}}, {"name": "StatefulPartitionedCall/tf_distil_bert_for_sequence_classification/distilbert/transformer/layer_._2/attention/Cast/x", "op": "Const", "attr": {"value": {"tensor": {"dtype": "DT_INT32", "tensorShape": {}}}, "dtype": {"type": "DT_INT32"}}}, {"name": "StatefulPartitionedCall/tf_distil_bert_for_sequence_classification/distilbert/transformer/layer_._2/attention/transpose_2/perm", "op": "Const", "attr": {"value": {"tensor": {"dtype": "DT_INT32", "tensorShape": {"dim": [{"size": "4"}]}}}, "dtype": {"type": "DT_INT32"}}}, {"name": "StatefulPartitionedCall/tf_distil_bert_for_sequence_classification/distilbert/transformer/layer_._2/attention/transpose_3/perm", "op": "Const", "attr": {"dtype": {"type": "DT_INT32"}, "value": {"tensor": {"dtype": "DT_INT32", "tensorShape": {"dim": [{"size": "4"}]}}}}}, {"name": "StatefulPartitionedCall/tf_distil_bert_for_sequence_classification/distilbert/transformer/layer_._2/attention/strided_slice/stack", "op": "Const", "attr": {"value": {"tensor": {"dtype": "DT_INT32", "tensorShape": {"dim": [{"size": "1"}]}}}, "dtype": {"type": "DT_INT32"}}}, {"name": "StatefulPartitionedCall/tf_distil_bert_for_sequence_classification/distilbert/transformer/layer_._2/attention/strided_slice/stack_1", "op": "Const", "attr": {"dtype": {"type": "DT_INT32"}, "value": {"tensor": {"dtype": "DT_INT32", "tensorShape": {"dim": [{"size": "1"}]}}}}}, {"name": "StatefulPartitionedCall/tf_distil_bert_for_sequence_classification/distilbert/transformer/layer_._2/attention/strided_slice/stack_2", "op": "Const", "attr": {"dtype": {"type": "DT_INT32"}, "value": {"tensor": {"dtype": "DT_INT32", "tensorShape": {"dim": [{"size": "1"}]}}}}}, {"name": "StatefulPartitionedCall/tf_distil_bert_for_sequence_classification/distilbert/transformer/layer_._2/attention/Reshape_4/shape/1", "op": "Const", "attr": {"dtype": {"type": "DT_INT32"}, "value": {"tensor": {"dtype": "DT_INT32", "tensorShape": {}}}}}, {"name": "StatefulPartitionedCall/tf_distil_bert_for_sequence_classification/distilbert/transformer/layer_._2/attention/mul_2", "op": "Const", "attr": {"value": {"tensor": {"dtype": "DT_INT32", "tensorShape": {}}}, "dtype": {"type": "DT_INT32"}}}, {"name": "StatefulPartitionedCall/tf_distil_bert_for_sequence_classification/distilbert/transformer/layer_._2/attention/out_lin/Tensordot/free", "op": "Const", "attr": {"value": {"tensor": {"dtype": "DT_INT32", "tensorShape": {"dim": [{"size": "2"}]}}}, "dtype": {"type": "DT_INT32"}}}, {"name": "StatefulPartitionedCall/tf_distil_bert_for_sequence_classification/distilbert/transformer/layer_._2/attention/out_lin/Tensordot/GatherV2/axis", "op": "Const", "attr": {"dtype": {"type": "DT_INT32"}, "value": {"tensor": {"dtype": "DT_INT32", "tensorShape": {}}}}}, {"name": "StatefulPartitionedCall/tf_distil_bert_for_sequence_classification/distilbert/transformer/layer_._2/attention/out_lin/Tensordot/Const_2", "op": "Const", "attr": {"dtype": {"type": "DT_INT32"}, "value": {"tensor": {"dtype": "DT_INT32", "tensorShape": {"dim": [{"size": "1"}]}}}}}, {"name": "StatefulPartitionedCall/tf_distil_bert_for_sequence_classification/distilbert/transformer/layer_._2/attention/out_lin/Tensordot/concat_1/axis", "op": "Const", "attr": {"dtype": {"type": "DT_INT32"}, "value": {"tensor": {"dtype": "DT_INT32", "tensorShape": {}}}}}, {"name": "StatefulPartitionedCall/tf_distil_bert_for_sequence_classification/distilbert/transformer/layer_._2/attention/out_lin/BiasAdd/ReadVariableOp", "op": "Const", "attr": {"dtype": {"type": "DT_FLOAT"}, "value": {"tensor": {"dtype": "DT_FLOAT", "tensorShape": {"dim": [{"size": "768"}]}}}}}, {"name": "StatefulPartitionedCall/tf_distil_bert_for_sequence_classification/distilbert/transformer/layer_._1/output_layer_norm/batchnorm/ReadVariableOp", "op": "Const", "attr": {"value": {"tensor": {"dtype": "DT_FLOAT", "tensorShape": {"dim": [{"size": "768"}]}}}, "dtype": {"type": "DT_FLOAT"}}}, {"name": "StatefulPartitionedCall/tf_distil_bert_for_sequence_classification/distilbert/transformer/layer_._1/ffn/lin2/Tensordot/Const", "op": "Const", "attr": {"dtype": {"type": "DT_INT32"}, "value": {"tensor": {"dtype": "DT_INT32", "tensorShape": {"dim": [{"size": "1"}]}}}}}, {"name": "StatefulPartitionedCall/tf_distil_bert_for_sequence_classification/distilbert/transformer/layer_._1/ffn/lin2/Tensordot/axes", "op": "Const", "attr": {"value": {"tensor": {"dtype": "DT_INT32", "tensorShape": {"dim": [{"size": "1"}]}}}, "dtype": {"type": "DT_INT32"}}}, {"name": "StatefulPartitionedCall/tf_distil_bert_for_sequence_classification/distilbert/transformer/layer_._1/ffn/lin2/Tensordot/GatherV2_1/axis", "op": "Const", "attr": {"dtype": {"type": "DT_INT32"}, "value": {"tensor": {"dtype": "DT_INT32", "tensorShape": {}}}}}, {"name": "StatefulPartitionedCall/tf_distil_bert_for_sequence_classification/distilbert/transformer/layer_._1/ffn/lin2/Tensordot/Const_1", "op": "Const", "attr": {"value": {"tensor": {"dtype": "DT_INT32", "tensorShape": {"dim": [{"size": "1"}]}}}, "dtype": {"type": "DT_INT32"}}}, {"name": "StatefulPartitionedCall/tf_distil_bert_for_sequence_classification/distilbert/transformer/layer_._1/ffn/lin2/Tensordot/ReadVariableOp", "op": "Const", "attr": {"dtype": {"type": "DT_FLOAT"}, "value": {"tensor": {"dtype": "DT_FLOAT", "tensorShape": {"dim": [{"size": "3072"}, {"size": "768"}]}}}}}, {"name": "StatefulPartitionedCall/tf_distil_bert_for_sequence_classification/distilbert/transformer/layer_._1/ffn/Gelu/mul/x", "op": "Const", "attr": {"value": {"tensor": {"dtype": "DT_FLOAT", "tensorShape": {}}}, "dtype": {"type": "DT_FLOAT"}}}, {"name": "StatefulPartitionedCall/tf_distil_bert_for_sequence_classification/distilbert/transformer/layer_._1/ffn/Gelu/add/x", "op": "Const", "attr": {"value": {"tensor": {"dtype": "DT_FLOAT", "tensorShape": {}}}, "dtype": {"type": "DT_FLOAT"}}}, {"name": "StatefulPartitionedCall/tf_distil_bert_for_sequence_classification/distilbert/transformer/layer_._1/ffn/lin1/Tensordot/Const", "op": "Const", "attr": {"dtype": {"type": "DT_INT32"}, "value": {"tensor": {"dtype": "DT_INT32", "tensorShape": {"dim": [{"size": "1"}]}}}}}, {"name": "StatefulPartitionedCall/tf_distil_bert_for_sequence_classification/distilbert/transformer/layer_._1/ffn/lin1/Tensordot/axes", "op": "Const", "attr": {"dtype": {"type": "DT_INT32"}, "value": {"tensor": {"dtype": "DT_INT32", "tensorShape": {"dim": [{"size": "1"}]}}}}}, {"name": "StatefulPartitionedCall/tf_distil_bert_for_sequence_classification/distilbert/transformer/layer_._1/ffn/lin1/Tensordot/GatherV2_1/axis", "op": "Const", "attr": {"dtype": {"type": "DT_INT32"}, "value": {"tensor": {"dtype": "DT_INT32", "tensorShape": {}}}}}, {"name": "StatefulPartitionedCall/tf_distil_bert_for_sequence_classification/distilbert/transformer/layer_._1/ffn/lin1/Tensordot/Const_1", "op": "Const", "attr": {"value": {"tensor": {"dtype": "DT_INT32", "tensorShape": {"dim": [{"size": "1"}]}}}, "dtype": {"type": "DT_INT32"}}}, {"name": "StatefulPartitionedCall/tf_distil_bert_for_sequence_classification/distilbert/transformer/layer_._1/ffn/lin1/Tensordot/ReadVariableOp", "op": "Const", "attr": {"dtype": {"type": "DT_FLOAT"}, "value": {"tensor": {"dtype": "DT_FLOAT", "tensorShape": {"dim": [{"size": "768"}, {"size": "3072"}]}}}}}, {"name": "StatefulPartitionedCall/tf_distil_bert_for_sequence_classification/distilbert/transformer/layer_._1/ffn/lin1/Tensordot/free", "op": "Const", "attr": {"dtype": {"type": "DT_INT32"}, "value": {"tensor": {"dtype": "DT_INT32", "tensorShape": {"dim": [{"size": "2"}]}}}}}, {"name": "StatefulPartitionedCall/tf_distil_bert_for_sequence_classification/distilbert/transformer/layer_._1/ffn/lin1/Tensordot/GatherV2/axis", "op": "Const", "attr": {"value": {"tensor": {"dtype": "DT_INT32", "tensorShape": {}}}, "dtype": {"type": "DT_INT32"}}}, {"name": "StatefulPartitionedCall/tf_distil_bert_for_sequence_classification/distilbert/transformer/layer_._1/ffn/lin1/Tensordot/Const_2", "op": "Const", "attr": {"value": {"tensor": {"dtype": "DT_INT32", "tensorShape": {"dim": [{"size": "1"}]}}}, "dtype": {"type": "DT_INT32"}}}, {"name": "StatefulPartitionedCall/tf_distil_bert_for_sequence_classification/distilbert/transformer/layer_._1/ffn/lin1/Tensordot/concat_1/axis", "op": "Const", "attr": {"value": {"tensor": {"dtype": "DT_INT32", "tensorShape": {}}}, "dtype": {"type": "DT_INT32"}}}, {"name": "StatefulPartitionedCall/tf_distil_bert_for_sequence_classification/distilbert/transformer/layer_._1/ffn/lin1/BiasAdd/ReadVariableOp", "op": "Const", "attr": {"value": {"tensor": {"dtype": "DT_FLOAT", "tensorShape": {"dim": [{"size": "3072"}]}}}, "dtype": {"type": "DT_FLOAT"}}}, {"name": "ConstantFolding/StatefulPartitionedCall/tf_distil_bert_for_sequence_classification/distilbert/transformer/layer_._1/ffn/Gelu/truediv_recip", "op": "Const", "attr": {"value": {"tensor": {"dtype": "DT_FLOAT", "tensorShape": {}}}, "dtype": {"type": "DT_FLOAT"}}}, {"name": "StatefulPartitionedCall/tf_distil_bert_for_sequence_classification/distilbert/transformer/layer_._1/ffn/lin2/Tensordot/free", "op": "Const", "attr": {"value": {"tensor": {"dtype": "DT_INT32", "tensorShape": {"dim": [{"size": "2"}]}}}, "dtype": {"type": "DT_INT32"}}}, {"name": "StatefulPartitionedCall/tf_distil_bert_for_sequence_classification/distilbert/transformer/layer_._1/ffn/lin2/Tensordot/GatherV2/axis", "op": "Const", "attr": {"dtype": {"type": "DT_INT32"}, "value": {"tensor": {"dtype": "DT_INT32", "tensorShape": {}}}}}, {"name": "StatefulPartitionedCall/tf_distil_bert_for_sequence_classification/distilbert/transformer/layer_._1/ffn/lin2/Tensordot/Const_2", "op": "Const", "attr": {"dtype": {"type": "DT_INT32"}, "value": {"tensor": {"dtype": "DT_INT32", "tensorShape": {"dim": [{"size": "1"}]}}}}}, {"name": "StatefulPartitionedCall/tf_distil_bert_for_sequence_classification/distilbert/transformer/layer_._1/ffn/lin2/Tensordot/concat_1/axis", "op": "Const", "attr": {"value": {"tensor": {"dtype": "DT_INT32", "tensorShape": {}}}, "dtype": {"type": "DT_INT32"}}}, {"name": "StatefulPartitionedCall/tf_distil_bert_for_sequence_classification/distilbert/transformer/layer_._1/ffn/lin2/BiasAdd/ReadVariableOp", "op": "Const", "attr": {"value": {"tensor": {"dtype": "DT_FLOAT", "tensorShape": {"dim": [{"size": "768"}]}}}, "dtype": {"type": "DT_FLOAT"}}}, {"name": "StatefulPartitionedCall/tf_distil_bert_for_sequence_classification/distilbert/transformer/layer_._1/sa_layer_norm/batchnorm/ReadVariableOp", "op": "Const", "attr": {"value": {"tensor": {"dtype": "DT_FLOAT", "tensorShape": {"dim": [{"size": "768"}]}}}, "dtype": {"type": "DT_FLOAT"}}}, {"name": "StatefulPartitionedCall/tf_distil_bert_for_sequence_classification/distilbert/transformer/layer_._1/attention/out_lin/Tensordot/Const", "op": "Const", "attr": {"dtype": {"type": "DT_INT32"}, "value": {"tensor": {"dtype": "DT_INT32", "tensorShape": {"dim": [{"size": "1"}]}}}}}, {"name": "StatefulPartitionedCall/tf_distil_bert_for_sequence_classification/distilbert/transformer/layer_._1/attention/out_lin/Tensordot/axes", "op": "Const", "attr": {"dtype": {"type": "DT_INT32"}, "value": {"tensor": {"dtype": "DT_INT32", "tensorShape": {"dim": [{"size": "1"}]}}}}}, {"name": "StatefulPartitionedCall/tf_distil_bert_for_sequence_classification/distilbert/transformer/layer_._1/attention/out_lin/Tensordot/GatherV2_1/axis", "op": "Const", "attr": {"dtype": {"type": "DT_INT32"}, "value": {"tensor": {"dtype": "DT_INT32", "tensorShape": {}}}}}, {"name": "StatefulPartitionedCall/tf_distil_bert_for_sequence_classification/distilbert/transformer/layer_._1/attention/out_lin/Tensordot/Const_1", "op": "Const", "attr": {"dtype": {"type": "DT_INT32"}, "value": {"tensor": {"dtype": "DT_INT32", "tensorShape": {"dim": [{"size": "1"}]}}}}}, {"name": "StatefulPartitionedCall/tf_distil_bert_for_sequence_classification/distilbert/transformer/layer_._1/attention/out_lin/Tensordot/ReadVariableOp", "op": "Const", "attr": {"dtype": {"type": "DT_FLOAT"}, "value": {"tensor": {"dtype": "DT_FLOAT", "tensorShape": {"dim": [{"size": "768"}, {"size": "768"}]}}}}}, {"name": "StatefulPartitionedCall/tf_distil_bert_for_sequence_classification/distilbert/transformer/layer_._1/attention/q_lin/Tensordot/Const", "op": "Const", "attr": {"dtype": {"type": "DT_INT32"}, "value": {"tensor": {"dtype": "DT_INT32", "tensorShape": {"dim": [{"size": "1"}]}}}}}, {"name": "StatefulPartitionedCall/tf_distil_bert_for_sequence_classification/distilbert/transformer/layer_._1/attention/q_lin/Tensordot/axes", "op": "Const", "attr": {"dtype": {"type": "DT_INT32"}, "value": {"tensor": {"dtype": "DT_INT32", "tensorShape": {"dim": [{"size": "1"}]}}}}}, {"name": "StatefulPartitionedCall/tf_distil_bert_for_sequence_classification/distilbert/transformer/layer_._1/attention/q_lin/Tensordot/GatherV2_1/axis", "op": "Const", "attr": {"dtype": {"type": "DT_INT32"}, "value": {"tensor": {"dtype": "DT_INT32", "tensorShape": {}}}}}, {"name": "StatefulPartitionedCall/tf_distil_bert_for_sequence_classification/distilbert/transformer/layer_._1/attention/q_lin/Tensordot/Const_1", "op": "Const", "attr": {"value": {"tensor": {"dtype": "DT_INT32", "tensorShape": {"dim": [{"size": "1"}]}}}, "dtype": {"type": "DT_INT32"}}}, {"name": "StatefulPartitionedCall/tf_distil_bert_for_sequence_classification/distilbert/transformer/layer_._1/attention/q_lin/Tensordot/ReadVariableOp", "op": "Const", "attr": {"value": {"tensor": {"dtype": "DT_FLOAT", "tensorShape": {"dim": [{"size": "768"}, {"size": "768"}]}}}, "dtype": {"type": "DT_FLOAT"}}}, {"name": "StatefulPartitionedCall/tf_distil_bert_for_sequence_classification/distilbert/transformer/layer_._1/attention/q_lin/Tensordot/free", "op": "Const", "attr": {"dtype": {"type": "DT_INT32"}, "value": {"tensor": {"dtype": "DT_INT32", "tensorShape": {"dim": [{"size": "2"}]}}}}}, {"name": "StatefulPartitionedCall/tf_distil_bert_for_sequence_classification/distilbert/transformer/layer_._1/attention/q_lin/Tensordot/GatherV2/axis", "op": "Const", "attr": {"dtype": {"type": "DT_INT32"}, "value": {"tensor": {"dtype": "DT_INT32", "tensorShape": {}}}}}, {"name": "StatefulPartitionedCall/tf_distil_bert_for_sequence_classification/distilbert/transformer/layer_._1/attention/q_lin/Tensordot/Const_2", "op": "Const", "attr": {"dtype": {"type": "DT_INT32"}, "value": {"tensor": {"dtype": "DT_INT32", "tensorShape": {"dim": [{"size": "1"}]}}}}}, {"name": "StatefulPartitionedCall/tf_distil_bert_for_sequence_classification/distilbert/transformer/layer_._1/attention/q_lin/Tensordot/concat_1/axis", "op": "Const", "attr": {"dtype": {"type": "DT_INT32"}, "value": {"tensor": {"dtype": "DT_INT32", "tensorShape": {}}}}}, {"name": "StatefulPartitionedCall/tf_distil_bert_for_sequence_classification/distilbert/transformer/layer_._1/attention/q_lin/BiasAdd/ReadVariableOp", "op": "Const", "attr": {"value": {"tensor": {"dtype": "DT_FLOAT", "tensorShape": {"dim": [{"size": "768"}]}}}, "dtype": {"type": "DT_FLOAT"}}}, {"name": "StatefulPartitionedCall/tf_distil_bert_for_sequence_classification/distilbert/transformer/layer_._1/attention/Reshape/shape/1", "op": "Const", "attr": {"value": {"tensor": {"dtype": "DT_INT32", "tensorShape": {}}}, "dtype": {"type": "DT_INT32"}}}, {"name": "StatefulPartitionedCall/tf_distil_bert_for_sequence_classification/distilbert/transformer/layer_._1/attention/Reshape/shape/2", "op": "Const", "attr": {"dtype": {"type": "DT_INT32"}, "value": {"tensor": {"dtype": "DT_INT32", "tensorShape": {}}}}}, {"name": "StatefulPartitionedCall/tf_distil_bert_for_sequence_classification/distilbert/transformer/layer_._1/attention/transpose/perm", "op": "Const", "attr": {"dtype": {"type": "DT_INT32"}, "value": {"tensor": {"dtype": "DT_INT32", "tensorShape": {"dim": [{"size": "4"}]}}}}}, {"name": "StatefulPartitionedCall/tf_distil_bert_for_sequence_classification/distilbert/transformer/layer_._1/attention/Rsqrt", "op": "Const", "attr": {"dtype": {"type": "DT_FLOAT"}, "value": {"tensor": {"dtype": "DT_FLOAT", "tensorShape": {}}}}}, {"name": "StatefulPartitionedCall/tf_distil_bert_for_sequence_classification/distilbert/transformer/layer_._1/attention/k_lin/Tensordot/Const", "op": "Const", "attr": {"dtype": {"type": "DT_INT32"}, "value": {"tensor": {"dtype": "DT_INT32", "tensorShape": {"dim": [{"size": "1"}]}}}}}, {"name": "StatefulPartitionedCall/tf_distil_bert_for_sequence_classification/distilbert/transformer/layer_._1/attention/k_lin/Tensordot/axes", "op": "Const", "attr": {"dtype": {"type": "DT_INT32"}, "value": {"tensor": {"dtype": "DT_INT32", "tensorShape": {"dim": [{"size": "1"}]}}}}}, {"name": "StatefulPartitionedCall/tf_distil_bert_for_sequence_classification/distilbert/transformer/layer_._1/attention/k_lin/Tensordot/GatherV2_1/axis", "op": "Const", "attr": {"value": {"tensor": {"dtype": "DT_INT32", "tensorShape": {}}}, "dtype": {"type": "DT_INT32"}}}, {"name": "StatefulPartitionedCall/tf_distil_bert_for_sequence_classification/distilbert/transformer/layer_._1/attention/k_lin/Tensordot/Const_1", "op": "Const", "attr": {"value": {"tensor": {"dtype": "DT_INT32", "tensorShape": {"dim": [{"size": "1"}]}}}, "dtype": {"type": "DT_INT32"}}}, {"name": "StatefulPartitionedCall/tf_distil_bert_for_sequence_classification/distilbert/transformer/layer_._1/attention/k_lin/Tensordot/ReadVariableOp", "op": "Const", "attr": {"value": {"tensor": {"dtype": "DT_FLOAT", "tensorShape": {"dim": [{"size": "768"}, {"size": "768"}]}}}, "dtype": {"type": "DT_FLOAT"}}}, {"name": "StatefulPartitionedCall/tf_distil_bert_for_sequence_classification/distilbert/transformer/layer_._1/attention/k_lin/Tensordot/free", "op": "Const", "attr": {"dtype": {"type": "DT_INT32"}, "value": {"tensor": {"dtype": "DT_INT32", "tensorShape": {"dim": [{"size": "2"}]}}}}}, {"name": "StatefulPartitionedCall/tf_distil_bert_for_sequence_classification/distilbert/transformer/layer_._1/attention/k_lin/Tensordot/GatherV2/axis", "op": "Const", "attr": {"dtype": {"type": "DT_INT32"}, "value": {"tensor": {"dtype": "DT_INT32", "tensorShape": {}}}}}, {"name": "StatefulPartitionedCall/tf_distil_bert_for_sequence_classification/distilbert/transformer/layer_._1/attention/k_lin/Tensordot/Const_2", "op": "Const", "attr": {"value": {"tensor": {"dtype": "DT_INT32", "tensorShape": {"dim": [{"size": "1"}]}}}, "dtype": {"type": "DT_INT32"}}}, {"name": "StatefulPartitionedCall/tf_distil_bert_for_sequence_classification/distilbert/transformer/layer_._1/attention/k_lin/Tensordot/concat_1/axis", "op": "Const", "attr": {"dtype": {"type": "DT_INT32"}, "value": {"tensor": {"dtype": "DT_INT32", "tensorShape": {}}}}}, {"name": "StatefulPartitionedCall/tf_distil_bert_for_sequence_classification/distilbert/transformer/layer_._1/attention/k_lin/BiasAdd/ReadVariableOp", "op": "Const", "attr": {"dtype": {"type": "DT_FLOAT"}, "value": {"tensor": {"dtype": "DT_FLOAT", "tensorShape": {"dim": [{"size": "768"}]}}}}}, {"name": "StatefulPartitionedCall/tf_distil_bert_for_sequence_classification/distilbert/transformer/layer_._1/attention/Reshape_1/shape/1", "op": "Const", "attr": {"value": {"tensor": {"dtype": "DT_INT32", "tensorShape": {}}}, "dtype": {"type": "DT_INT32"}}}, {"name": "StatefulPartitionedCall/tf_distil_bert_for_sequence_classification/distilbert/transformer/layer_._1/attention/Reshape_1/shape/2", "op": "Const", "attr": {"value": {"tensor": {"dtype": "DT_INT32", "tensorShape": {}}}, "dtype": {"type": "DT_INT32"}}}, {"name": "StatefulPartitionedCall/tf_distil_bert_for_sequence_classification/distilbert/transformer/layer_._1/attention/transpose_1/perm", "op": "Const", "attr": {"value": {"tensor": {"dtype": "DT_INT32", "tensorShape": {"dim": [{"size": "4"}]}}}, "dtype": {"type": "DT_INT32"}}}, {"name": "StatefulPartitionedCall/tf_distil_bert_for_sequence_classification/distilbert/transformer/layer_._1/attention/add/y", "op": "Const", "attr": {"value": {"tensor": {"dtype": "DT_FLOAT", "tensorShape": {}}}, "dtype": {"type": "DT_FLOAT"}}}, {"name": "StatefulPartitionedCall/tf_distil_bert_for_sequence_classification/distilbert/transformer/layer_._1/attention/mul_1/x", "op": "Const", "attr": {"value": {"tensor": {"dtype": "DT_FLOAT", "tensorShape": {}}}, "dtype": {"type": "DT_FLOAT"}}}, {"name": "StatefulPartitionedCall/tf_distil_bert_for_sequence_classification/distilbert/transformer/layer_._1/attention/sub/x", "op": "Const", "attr": {"dtype": {"type": "DT_FLOAT"}, "value": {"tensor": {"dtype": "DT_FLOAT", "tensorShape": {}}}}}, {"name": "StatefulPartitionedCall/tf_distil_bert_for_sequence_classification/distilbert/transformer/layer_._1/attention/Reshape_3/shape/1", "op": "Const", "attr": {"value": {"tensor": {"dtype": "DT_INT32", "tensorShape": {}}}, "dtype": {"type": "DT_INT32"}}}, {"name": "StatefulPartitionedCall/tf_distil_bert_for_sequence_classification/distilbert/transformer/layer_._1/attention/Reshape_3/shape/2", "op": "Const", "attr": {"value": {"tensor": {"dtype": "DT_INT32", "tensorShape": {}}}, "dtype": {"type": "DT_INT32"}}}, {"name": "StatefulPartitionedCall/tf_distil_bert_for_sequence_classification/distilbert/transformer/layer_._1/attention/strided_slice_3/stack", "op": "Const", "attr": {"value": {"tensor": {"dtype": "DT_INT32", "tensorShape": {"dim": [{"size": "1"}]}}}, "dtype": {"type": "DT_INT32"}}}, {"name": "StatefulPartitionedCall/tf_distil_bert_for_sequence_classification/distilbert/transformer/layer_._1/attention/strided_slice_3/stack_1", "op": "Const", "attr": {"dtype": {"type": "DT_INT32"}, "value": {"tensor": {"dtype": "DT_INT32", "tensorShape": {"dim": [{"size": "1"}]}}}}}, {"name": "StatefulPartitionedCall/tf_distil_bert_for_sequence_classification/distilbert/transformer/layer_._1/attention/strided_slice_3/stack_2", "op": "Const", "attr": {"dtype": {"type": "DT_INT32"}, "value": {"tensor": {"dtype": "DT_INT32", "tensorShape": {"dim": [{"size": "1"}]}}}}}, {"name": "StatefulPartitionedCall/tf_distil_bert_for_sequence_classification/distilbert/transformer/layer_._1/attention/v_lin/Tensordot/Const", "op": "Const", "attr": {"value": {"tensor": {"dtype": "DT_INT32", "tensorShape": {"dim": [{"size": "1"}]}}}, "dtype": {"type": "DT_INT32"}}}, {"name": "StatefulPartitionedCall/tf_distil_bert_for_sequence_classification/distilbert/transformer/layer_._1/attention/v_lin/Tensordot/axes", "op": "Const", "attr": {"dtype": {"type": "DT_INT32"}, "value": {"tensor": {"dtype": "DT_INT32", "tensorShape": {"dim": [{"size": "1"}]}}}}}, {"name": "StatefulPartitionedCall/tf_distil_bert_for_sequence_classification/distilbert/transformer/layer_._1/attention/v_lin/Tensordot/GatherV2_1/axis", "op": "Const", "attr": {"dtype": {"type": "DT_INT32"}, "value": {"tensor": {"dtype": "DT_INT32", "tensorShape": {}}}}}, {"name": "StatefulPartitionedCall/tf_distil_bert_for_sequence_classification/distilbert/transformer/layer_._1/attention/v_lin/Tensordot/Const_1", "op": "Const", "attr": {"dtype": {"type": "DT_INT32"}, "value": {"tensor": {"dtype": "DT_INT32", "tensorShape": {"dim": [{"size": "1"}]}}}}}, {"name": "StatefulPartitionedCall/tf_distil_bert_for_sequence_classification/distilbert/transformer/layer_._1/attention/v_lin/Tensordot/ReadVariableOp", "op": "Const", "attr": {"dtype": {"type": "DT_FLOAT"}, "value": {"tensor": {"dtype": "DT_FLOAT", "tensorShape": {"dim": [{"size": "768"}, {"size": "768"}]}}}}}, {"name": "StatefulPartitionedCall/tf_distil_bert_for_sequence_classification/distilbert/transformer/layer_._1/attention/v_lin/Tensordot/free", "op": "Const", "attr": {"dtype": {"type": "DT_INT32"}, "value": {"tensor": {"dtype": "DT_INT32", "tensorShape": {"dim": [{"size": "2"}]}}}}}, {"name": "StatefulPartitionedCall/tf_distil_bert_for_sequence_classification/distilbert/transformer/layer_._1/attention/v_lin/Tensordot/GatherV2/axis", "op": "Const", "attr": {"dtype": {"type": "DT_INT32"}, "value": {"tensor": {"dtype": "DT_INT32", "tensorShape": {}}}}}, {"name": "StatefulPartitionedCall/tf_distil_bert_for_sequence_classification/distilbert/transformer/layer_._1/attention/v_lin/Tensordot/Const_2", "op": "Const", "attr": {"value": {"tensor": {"dtype": "DT_INT32", "tensorShape": {"dim": [{"size": "1"}]}}}, "dtype": {"type": "DT_INT32"}}}, {"name": "StatefulPartitionedCall/tf_distil_bert_for_sequence_classification/distilbert/transformer/layer_._1/attention/v_lin/Tensordot/concat_1/axis", "op": "Const", "attr": {"dtype": {"type": "DT_INT32"}, "value": {"tensor": {"dtype": "DT_INT32", "tensorShape": {}}}}}, {"name": "StatefulPartitionedCall/tf_distil_bert_for_sequence_classification/distilbert/transformer/layer_._1/attention/v_lin/BiasAdd/ReadVariableOp", "op": "Const", "attr": {"value": {"tensor": {"dtype": "DT_FLOAT", "tensorShape": {"dim": [{"size": "768"}]}}}, "dtype": {"type": "DT_FLOAT"}}}, {"name": "StatefulPartitionedCall/tf_distil_bert_for_sequence_classification/distilbert/transformer/layer_._1/attention/Reshape_2/shape/1", "op": "Const", "attr": {"dtype": {"type": "DT_INT32"}, "value": {"tensor": {"dtype": "DT_INT32", "tensorShape": {}}}}}, {"name": "StatefulPartitionedCall/tf_distil_bert_for_sequence_classification/distilbert/transformer/layer_._1/attention/Reshape_2/shape/2", "op": "Const", "attr": {"dtype": {"type": "DT_INT32"}, "value": {"tensor": {"dtype": "DT_INT32", "tensorShape": {}}}}}, {"name": "StatefulPartitionedCall/tf_distil_bert_for_sequence_classification/distilbert/transformer/layer_._1/attention/Cast/x", "op": "Const", "attr": {"value": {"tensor": {"dtype": "DT_INT32", "tensorShape": {}}}, "dtype": {"type": "DT_INT32"}}}, {"name": "StatefulPartitionedCall/tf_distil_bert_for_sequence_classification/distilbert/transformer/layer_._1/attention/transpose_2/perm", "op": "Const", "attr": {"dtype": {"type": "DT_INT32"}, "value": {"tensor": {"dtype": "DT_INT32", "tensorShape": {"dim": [{"size": "4"}]}}}}}, {"name": "StatefulPartitionedCall/tf_distil_bert_for_sequence_classification/distilbert/transformer/layer_._1/attention/transpose_3/perm", "op": "Const", "attr": {"dtype": {"type": "DT_INT32"}, "value": {"tensor": {"dtype": "DT_INT32", "tensorShape": {"dim": [{"size": "4"}]}}}}}, {"name": "StatefulPartitionedCall/tf_distil_bert_for_sequence_classification/distilbert/transformer/layer_._1/attention/strided_slice/stack", "op": "Const", "attr": {"dtype": {"type": "DT_INT32"}, "value": {"tensor": {"dtype": "DT_INT32", "tensorShape": {"dim": [{"size": "1"}]}}}}}, {"name": "StatefulPartitionedCall/tf_distil_bert_for_sequence_classification/distilbert/transformer/layer_._1/attention/strided_slice/stack_1", "op": "Const", "attr": {"value": {"tensor": {"dtype": "DT_INT32", "tensorShape": {"dim": [{"size": "1"}]}}}, "dtype": {"type": "DT_INT32"}}}, {"name": "StatefulPartitionedCall/tf_distil_bert_for_sequence_classification/distilbert/transformer/layer_._1/attention/strided_slice/stack_2", "op": "Const", "attr": {"dtype": {"type": "DT_INT32"}, "value": {"tensor": {"dtype": "DT_INT32", "tensorShape": {"dim": [{"size": "1"}]}}}}}, {"name": "StatefulPartitionedCall/tf_distil_bert_for_sequence_classification/distilbert/transformer/layer_._1/attention/Reshape_4/shape/1", "op": "Const", "attr": {"dtype": {"type": "DT_INT32"}, "value": {"tensor": {"dtype": "DT_INT32", "tensorShape": {}}}}}, {"name": "StatefulPartitionedCall/tf_distil_bert_for_sequence_classification/distilbert/transformer/layer_._1/attention/mul_2", "op": "Const", "attr": {"dtype": {"type": "DT_INT32"}, "value": {"tensor": {"dtype": "DT_INT32", "tensorShape": {}}}}}, {"name": "StatefulPartitionedCall/tf_distil_bert_for_sequence_classification/distilbert/transformer/layer_._1/attention/out_lin/Tensordot/free", "op": "Const", "attr": {"dtype": {"type": "DT_INT32"}, "value": {"tensor": {"dtype": "DT_INT32", "tensorShape": {"dim": [{"size": "2"}]}}}}}, {"name": "StatefulPartitionedCall/tf_distil_bert_for_sequence_classification/distilbert/transformer/layer_._1/attention/out_lin/Tensordot/GatherV2/axis", "op": "Const", "attr": {"dtype": {"type": "DT_INT32"}, "value": {"tensor": {"dtype": "DT_INT32", "tensorShape": {}}}}}, {"name": "StatefulPartitionedCall/tf_distil_bert_for_sequence_classification/distilbert/transformer/layer_._1/attention/out_lin/Tensordot/Const_2", "op": "Const", "attr": {"dtype": {"type": "DT_INT32"}, "value": {"tensor": {"dtype": "DT_INT32", "tensorShape": {"dim": [{"size": "1"}]}}}}}, {"name": "StatefulPartitionedCall/tf_distil_bert_for_sequence_classification/distilbert/transformer/layer_._1/attention/out_lin/Tensordot/concat_1/axis", "op": "Const", "attr": {"dtype": {"type": "DT_INT32"}, "value": {"tensor": {"dtype": "DT_INT32", "tensorShape": {}}}}}, {"name": "StatefulPartitionedCall/tf_distil_bert_for_sequence_classification/distilbert/transformer/layer_._1/attention/out_lin/BiasAdd/ReadVariableOp", "op": "Const", "attr": {"value": {"tensor": {"dtype": "DT_FLOAT", "tensorShape": {"dim": [{"size": "768"}]}}}, "dtype": {"type": "DT_FLOAT"}}}, {"name": "StatefulPartitionedCall/tf_distil_bert_for_sequence_classification/distilbert/transformer/layer_._0/output_layer_norm/batchnorm/ReadVariableOp", "op": "Const", "attr": {"dtype": {"type": "DT_FLOAT"}, "value": {"tensor": {"dtype": "DT_FLOAT", "tensorShape": {"dim": [{"size": "768"}]}}}}}, {"name": "StatefulPartitionedCall/tf_distil_bert_for_sequence_classification/distilbert/transformer/layer_._0/ffn/lin2/Tensordot/Const", "op": "Const", "attr": {"value": {"tensor": {"dtype": "DT_INT32", "tensorShape": {"dim": [{"size": "1"}]}}}, "dtype": {"type": "DT_INT32"}}}, {"name": "StatefulPartitionedCall/tf_distil_bert_for_sequence_classification/distilbert/transformer/layer_._0/ffn/lin2/Tensordot/axes", "op": "Const", "attr": {"dtype": {"type": "DT_INT32"}, "value": {"tensor": {"dtype": "DT_INT32", "tensorShape": {"dim": [{"size": "1"}]}}}}}, {"name": "StatefulPartitionedCall/tf_distil_bert_for_sequence_classification/distilbert/transformer/layer_._0/ffn/lin2/Tensordot/GatherV2_1/axis", "op": "Const", "attr": {"dtype": {"type": "DT_INT32"}, "value": {"tensor": {"dtype": "DT_INT32", "tensorShape": {}}}}}, {"name": "StatefulPartitionedCall/tf_distil_bert_for_sequence_classification/distilbert/transformer/layer_._0/ffn/lin2/Tensordot/Const_1", "op": "Const", "attr": {"dtype": {"type": "DT_INT32"}, "value": {"tensor": {"dtype": "DT_INT32", "tensorShape": {"dim": [{"size": "1"}]}}}}}, {"name": "StatefulPartitionedCall/tf_distil_bert_for_sequence_classification/distilbert/transformer/layer_._0/ffn/lin2/Tensordot/ReadVariableOp", "op": "Const", "attr": {"value": {"tensor": {"dtype": "DT_FLOAT", "tensorShape": {"dim": [{"size": "3072"}, {"size": "768"}]}}}, "dtype": {"type": "DT_FLOAT"}}}, {"name": "StatefulPartitionedCall/tf_distil_bert_for_sequence_classification/distilbert/transformer/layer_._0/ffn/Gelu/mul/x", "op": "Const", "attr": {"value": {"tensor": {"dtype": "DT_FLOAT", "tensorShape": {}}}, "dtype": {"type": "DT_FLOAT"}}}, {"name": "StatefulPartitionedCall/tf_distil_bert_for_sequence_classification/distilbert/transformer/layer_._0/ffn/Gelu/add/x", "op": "Const", "attr": {"value": {"tensor": {"dtype": "DT_FLOAT", "tensorShape": {}}}, "dtype": {"type": "DT_FLOAT"}}}, {"name": "StatefulPartitionedCall/tf_distil_bert_for_sequence_classification/distilbert/transformer/layer_._0/ffn/lin1/Tensordot/Const", "op": "Const", "attr": {"value": {"tensor": {"dtype": "DT_INT32", "tensorShape": {"dim": [{"size": "1"}]}}}, "dtype": {"type": "DT_INT32"}}}, {"name": "StatefulPartitionedCall/tf_distil_bert_for_sequence_classification/distilbert/transformer/layer_._0/ffn/lin1/Tensordot/axes", "op": "Const", "attr": {"dtype": {"type": "DT_INT32"}, "value": {"tensor": {"dtype": "DT_INT32", "tensorShape": {"dim": [{"size": "1"}]}}}}}, {"name": "StatefulPartitionedCall/tf_distil_bert_for_sequence_classification/distilbert/transformer/layer_._0/ffn/lin1/Tensordot/GatherV2_1/axis", "op": "Const", "attr": {"dtype": {"type": "DT_INT32"}, "value": {"tensor": {"dtype": "DT_INT32", "tensorShape": {}}}}}, {"name": "StatefulPartitionedCall/tf_distil_bert_for_sequence_classification/distilbert/transformer/layer_._0/ffn/lin1/Tensordot/Const_1", "op": "Const", "attr": {"dtype": {"type": "DT_INT32"}, "value": {"tensor": {"dtype": "DT_INT32", "tensorShape": {"dim": [{"size": "1"}]}}}}}, {"name": "StatefulPartitionedCall/tf_distil_bert_for_sequence_classification/distilbert/transformer/layer_._0/ffn/lin1/Tensordot/ReadVariableOp", "op": "Const", "attr": {"dtype": {"type": "DT_FLOAT"}, "value": {"tensor": {"dtype": "DT_FLOAT", "tensorShape": {"dim": [{"size": "768"}, {"size": "3072"}]}}}}}, {"name": "StatefulPartitionedCall/tf_distil_bert_for_sequence_classification/distilbert/transformer/layer_._0/ffn/lin1/Tensordot/free", "op": "Const", "attr": {"value": {"tensor": {"dtype": "DT_INT32", "tensorShape": {"dim": [{"size": "2"}]}}}, "dtype": {"type": "DT_INT32"}}}, {"name": "StatefulPartitionedCall/tf_distil_bert_for_sequence_classification/distilbert/transformer/layer_._0/ffn/lin1/Tensordot/GatherV2/axis", "op": "Const", "attr": {"dtype": {"type": "DT_INT32"}, "value": {"tensor": {"dtype": "DT_INT32", "tensorShape": {}}}}}, {"name": "StatefulPartitionedCall/tf_distil_bert_for_sequence_classification/distilbert/transformer/layer_._0/ffn/lin1/Tensordot/Const_2", "op": "Const", "attr": {"value": {"tensor": {"dtype": "DT_INT32", "tensorShape": {"dim": [{"size": "1"}]}}}, "dtype": {"type": "DT_INT32"}}}, {"name": "StatefulPartitionedCall/tf_distil_bert_for_sequence_classification/distilbert/transformer/layer_._0/ffn/lin1/Tensordot/concat_1/axis", "op": "Const", "attr": {"dtype": {"type": "DT_INT32"}, "value": {"tensor": {"dtype": "DT_INT32", "tensorShape": {}}}}}, {"name": "StatefulPartitionedCall/tf_distil_bert_for_sequence_classification/distilbert/transformer/layer_._0/ffn/lin1/BiasAdd/ReadVariableOp", "op": "Const", "attr": {"dtype": {"type": "DT_FLOAT"}, "value": {"tensor": {"dtype": "DT_FLOAT", "tensorShape": {"dim": [{"size": "3072"}]}}}}}, {"name": "ConstantFolding/StatefulPartitionedCall/tf_distil_bert_for_sequence_classification/distilbert/transformer/layer_._0/ffn/Gelu/truediv_recip", "op": "Const", "attr": {"value": {"tensor": {"dtype": "DT_FLOAT", "tensorShape": {}}}, "dtype": {"type": "DT_FLOAT"}}}, {"name": "StatefulPartitionedCall/tf_distil_bert_for_sequence_classification/distilbert/transformer/layer_._0/ffn/lin2/Tensordot/free", "op": "Const", "attr": {"value": {"tensor": {"dtype": "DT_INT32", "tensorShape": {"dim": [{"size": "2"}]}}}, "dtype": {"type": "DT_INT32"}}}, {"name": "StatefulPartitionedCall/tf_distil_bert_for_sequence_classification/distilbert/transformer/layer_._0/ffn/lin2/Tensordot/GatherV2/axis", "op": "Const", "attr": {"dtype": {"type": "DT_INT32"}, "value": {"tensor": {"dtype": "DT_INT32", "tensorShape": {}}}}}, {"name": "StatefulPartitionedCall/tf_distil_bert_for_sequence_classification/distilbert/transformer/layer_._0/ffn/lin2/Tensordot/Const_2", "op": "Const", "attr": {"dtype": {"type": "DT_INT32"}, "value": {"tensor": {"dtype": "DT_INT32", "tensorShape": {"dim": [{"size": "1"}]}}}}}, {"name": "StatefulPartitionedCall/tf_distil_bert_for_sequence_classification/distilbert/transformer/layer_._0/ffn/lin2/Tensordot/concat_1/axis", "op": "Const", "attr": {"value": {"tensor": {"dtype": "DT_INT32", "tensorShape": {}}}, "dtype": {"type": "DT_INT32"}}}, {"name": "StatefulPartitionedCall/tf_distil_bert_for_sequence_classification/distilbert/transformer/layer_._0/ffn/lin2/BiasAdd/ReadVariableOp", "op": "Const", "attr": {"dtype": {"type": "DT_FLOAT"}, "value": {"tensor": {"dtype": "DT_FLOAT", "tensorShape": {"dim": [{"size": "768"}]}}}}}, {"name": "StatefulPartitionedCall/tf_distil_bert_for_sequence_classification/distilbert/transformer/layer_._0/sa_layer_norm/batchnorm/ReadVariableOp", "op": "Const", "attr": {"value": {"tensor": {"dtype": "DT_FLOAT", "tensorShape": {"dim": [{"size": "768"}]}}}, "dtype": {"type": "DT_FLOAT"}}}, {"name": "StatefulPartitionedCall/tf_distil_bert_for_sequence_classification/distilbert/transformer/layer_._0/attention/out_lin/Tensordot/Const", "op": "Const", "attr": {"value": {"tensor": {"dtype": "DT_INT32", "tensorShape": {"dim": [{"size": "1"}]}}}, "dtype": {"type": "DT_INT32"}}}, {"name": "StatefulPartitionedCall/tf_distil_bert_for_sequence_classification/distilbert/transformer/layer_._0/attention/out_lin/Tensordot/axes", "op": "Const", "attr": {"value": {"tensor": {"dtype": "DT_INT32", "tensorShape": {"dim": [{"size": "1"}]}}}, "dtype": {"type": "DT_INT32"}}}, {"name": "StatefulPartitionedCall/tf_distil_bert_for_sequence_classification/distilbert/transformer/layer_._0/attention/out_lin/Tensordot/GatherV2_1/axis", "op": "Const", "attr": {"dtype": {"type": "DT_INT32"}, "value": {"tensor": {"dtype": "DT_INT32", "tensorShape": {}}}}}, {"name": "StatefulPartitionedCall/tf_distil_bert_for_sequence_classification/distilbert/transformer/layer_._0/attention/out_lin/Tensordot/Const_1", "op": "Const", "attr": {"value": {"tensor": {"dtype": "DT_INT32", "tensorShape": {"dim": [{"size": "1"}]}}}, "dtype": {"type": "DT_INT32"}}}, {"name": "StatefulPartitionedCall/tf_distil_bert_for_sequence_classification/distilbert/transformer/layer_._0/attention/out_lin/Tensordot/ReadVariableOp", "op": "Const", "attr": {"value": {"tensor": {"dtype": "DT_FLOAT", "tensorShape": {"dim": [{"size": "768"}, {"size": "768"}]}}}, "dtype": {"type": "DT_FLOAT"}}}, {"name": "StatefulPartitionedCall/tf_distil_bert_for_sequence_classification/distilbert/transformer/layer_._0/attention/q_lin/Tensordot/Const", "op": "Const", "attr": {"dtype": {"type": "DT_INT32"}, "value": {"tensor": {"dtype": "DT_INT32", "tensorShape": {"dim": [{"size": "1"}]}}}}}, {"name": "StatefulPartitionedCall/tf_distil_bert_for_sequence_classification/distilbert/transformer/layer_._0/attention/q_lin/Tensordot/axes", "op": "Const", "attr": {"value": {"tensor": {"dtype": "DT_INT32", "tensorShape": {"dim": [{"size": "1"}]}}}, "dtype": {"type": "DT_INT32"}}}, {"name": "StatefulPartitionedCall/tf_distil_bert_for_sequence_classification/distilbert/transformer/layer_._0/attention/q_lin/Tensordot/GatherV2_1/axis", "op": "Const", "attr": {"value": {"tensor": {"dtype": "DT_INT32", "tensorShape": {}}}, "dtype": {"type": "DT_INT32"}}}, {"name": "StatefulPartitionedCall/tf_distil_bert_for_sequence_classification/distilbert/transformer/layer_._0/attention/q_lin/Tensordot/Const_1", "op": "Const", "attr": {"value": {"tensor": {"dtype": "DT_INT32", "tensorShape": {"dim": [{"size": "1"}]}}}, "dtype": {"type": "DT_INT32"}}}, {"name": "StatefulPartitionedCall/tf_distil_bert_for_sequence_classification/distilbert/transformer/layer_._0/attention/q_lin/Tensordot/ReadVariableOp", "op": "Const", "attr": {"value": {"tensor": {"dtype": "DT_FLOAT", "tensorShape": {"dim": [{"size": "768"}, {"size": "768"}]}}}, "dtype": {"type": "DT_FLOAT"}}}, {"name": "StatefulPartitionedCall/tf_distil_bert_for_sequence_classification/distilbert/transformer/layer_._0/attention/q_lin/Tensordot/free", "op": "Const", "attr": {"dtype": {"type": "DT_INT32"}, "value": {"tensor": {"dtype": "DT_INT32", "tensorShape": {"dim": [{"size": "2"}]}}}}}, {"name": "StatefulPartitionedCall/tf_distil_bert_for_sequence_classification/distilbert/transformer/layer_._0/attention/q_lin/Tensordot/GatherV2/axis", "op": "Const", "attr": {"dtype": {"type": "DT_INT32"}, "value": {"tensor": {"dtype": "DT_INT32", "tensorShape": {}}}}}, {"name": "StatefulPartitionedCall/tf_distil_bert_for_sequence_classification/distilbert/transformer/layer_._0/attention/q_lin/Tensordot/Const_2", "op": "Const", "attr": {"value": {"tensor": {"dtype": "DT_INT32", "tensorShape": {"dim": [{"size": "1"}]}}}, "dtype": {"type": "DT_INT32"}}}, {"name": "StatefulPartitionedCall/tf_distil_bert_for_sequence_classification/distilbert/transformer/layer_._0/attention/q_lin/Tensordot/concat_1/axis", "op": "Const", "attr": {"dtype": {"type": "DT_INT32"}, "value": {"tensor": {"dtype": "DT_INT32", "tensorShape": {}}}}}, {"name": "StatefulPartitionedCall/tf_distil_bert_for_sequence_classification/distilbert/transformer/layer_._0/attention/q_lin/BiasAdd/ReadVariableOp", "op": "Const", "attr": {"dtype": {"type": "DT_FLOAT"}, "value": {"tensor": {"dtype": "DT_FLOAT", "tensorShape": {"dim": [{"size": "768"}]}}}}}, {"name": "StatefulPartitionedCall/tf_distil_bert_for_sequence_classification/distilbert/transformer/layer_._0/attention/Reshape/shape/1", "op": "Const", "attr": {"dtype": {"type": "DT_INT32"}, "value": {"tensor": {"dtype": "DT_INT32", "tensorShape": {}}}}}, {"name": "StatefulPartitionedCall/tf_distil_bert_for_sequence_classification/distilbert/transformer/layer_._0/attention/Reshape/shape/2", "op": "Const", "attr": {"dtype": {"type": "DT_INT32"}, "value": {"tensor": {"dtype": "DT_INT32", "tensorShape": {}}}}}, {"name": "StatefulPartitionedCall/tf_distil_bert_for_sequence_classification/distilbert/transformer/layer_._0/attention/transpose/perm", "op": "Const", "attr": {"value": {"tensor": {"dtype": "DT_INT32", "tensorShape": {"dim": [{"size": "4"}]}}}, "dtype": {"type": "DT_INT32"}}}, {"name": "StatefulPartitionedCall/tf_distil_bert_for_sequence_classification/distilbert/transformer/layer_._0/attention/Rsqrt", "op": "Const", "attr": {"value": {"tensor": {"dtype": "DT_FLOAT", "tensorShape": {}}}, "dtype": {"type": "DT_FLOAT"}}}, {"name": "StatefulPartitionedCall/tf_distil_bert_for_sequence_classification/distilbert/transformer/layer_._0/attention/k_lin/Tensordot/Const", "op": "Const", "attr": {"dtype": {"type": "DT_INT32"}, "value": {"tensor": {"dtype": "DT_INT32", "tensorShape": {"dim": [{"size": "1"}]}}}}}, {"name": "StatefulPartitionedCall/tf_distil_bert_for_sequence_classification/distilbert/transformer/layer_._0/attention/k_lin/Tensordot/axes", "op": "Const", "attr": {"value": {"tensor": {"dtype": "DT_INT32", "tensorShape": {"dim": [{"size": "1"}]}}}, "dtype": {"type": "DT_INT32"}}}, {"name": "StatefulPartitionedCall/tf_distil_bert_for_sequence_classification/distilbert/transformer/layer_._0/attention/k_lin/Tensordot/GatherV2_1/axis", "op": "Const", "attr": {"dtype": {"type": "DT_INT32"}, "value": {"tensor": {"dtype": "DT_INT32", "tensorShape": {}}}}}, {"name": "StatefulPartitionedCall/tf_distil_bert_for_sequence_classification/distilbert/transformer/layer_._0/attention/k_lin/Tensordot/Const_1", "op": "Const", "attr": {"value": {"tensor": {"dtype": "DT_INT32", "tensorShape": {"dim": [{"size": "1"}]}}}, "dtype": {"type": "DT_INT32"}}}, {"name": "StatefulPartitionedCall/tf_distil_bert_for_sequence_classification/distilbert/transformer/layer_._0/attention/k_lin/Tensordot/ReadVariableOp", "op": "Const", "attr": {"dtype": {"type": "DT_FLOAT"}, "value": {"tensor": {"dtype": "DT_FLOAT", "tensorShape": {"dim": [{"size": "768"}, {"size": "768"}]}}}}}, {"name": "StatefulPartitionedCall/tf_distil_bert_for_sequence_classification/distilbert/transformer/layer_._0/attention/k_lin/Tensordot/free", "op": "Const", "attr": {"dtype": {"type": "DT_INT32"}, "value": {"tensor": {"dtype": "DT_INT32", "tensorShape": {"dim": [{"size": "2"}]}}}}}, {"name": "StatefulPartitionedCall/tf_distil_bert_for_sequence_classification/distilbert/transformer/layer_._0/attention/k_lin/Tensordot/GatherV2/axis", "op": "Const", "attr": {"value": {"tensor": {"dtype": "DT_INT32", "tensorShape": {}}}, "dtype": {"type": "DT_INT32"}}}, {"name": "StatefulPartitionedCall/tf_distil_bert_for_sequence_classification/distilbert/transformer/layer_._0/attention/k_lin/Tensordot/Const_2", "op": "Const", "attr": {"dtype": {"type": "DT_INT32"}, "value": {"tensor": {"dtype": "DT_INT32", "tensorShape": {"dim": [{"size": "1"}]}}}}}, {"name": "StatefulPartitionedCall/tf_distil_bert_for_sequence_classification/distilbert/transformer/layer_._0/attention/k_lin/Tensordot/concat_1/axis", "op": "Const", "attr": {"value": {"tensor": {"dtype": "DT_INT32", "tensorShape": {}}}, "dtype": {"type": "DT_INT32"}}}, {"name": "StatefulPartitionedCall/tf_distil_bert_for_sequence_classification/distilbert/transformer/layer_._0/attention/k_lin/BiasAdd/ReadVariableOp", "op": "Const", "attr": {"value": {"tensor": {"dtype": "DT_FLOAT", "tensorShape": {"dim": [{"size": "768"}]}}}, "dtype": {"type": "DT_FLOAT"}}}, {"name": "StatefulPartitionedCall/tf_distil_bert_for_sequence_classification/distilbert/transformer/layer_._0/attention/Reshape_1/shape/1", "op": "Const", "attr": {"dtype": {"type": "DT_INT32"}, "value": {"tensor": {"dtype": "DT_INT32", "tensorShape": {}}}}}, {"name": "StatefulPartitionedCall/tf_distil_bert_for_sequence_classification/distilbert/transformer/layer_._0/attention/Reshape_1/shape/2", "op": "Const", "attr": {"value": {"tensor": {"dtype": "DT_INT32", "tensorShape": {}}}, "dtype": {"type": "DT_INT32"}}}, {"name": "StatefulPartitionedCall/tf_distil_bert_for_sequence_classification/distilbert/transformer/layer_._0/attention/transpose_1/perm", "op": "Const", "attr": {"value": {"tensor": {"dtype": "DT_INT32", "tensorShape": {"dim": [{"size": "4"}]}}}, "dtype": {"type": "DT_INT32"}}}, {"name": "StatefulPartitionedCall/tf_distil_bert_for_sequence_classification/distilbert/transformer/layer_._0/attention/add/y", "op": "Const", "attr": {"value": {"tensor": {"dtype": "DT_FLOAT", "tensorShape": {}}}, "dtype": {"type": "DT_FLOAT"}}}, {"name": "StatefulPartitionedCall/tf_distil_bert_for_sequence_classification/distilbert/transformer/layer_._0/attention/mul_1/x", "op": "Const", "attr": {"dtype": {"type": "DT_FLOAT"}, "value": {"tensor": {"dtype": "DT_FLOAT", "tensorShape": {}}}}}, {"name": "StatefulPartitionedCall/tf_distil_bert_for_sequence_classification/distilbert/transformer/layer_._0/attention/sub/x", "op": "Const", "attr": {"value": {"tensor": {"dtype": "DT_FLOAT", "tensorShape": {}}}, "dtype": {"type": "DT_FLOAT"}}}, {"name": "StatefulPartitionedCall/tf_distil_bert_for_sequence_classification/distilbert/transformer/layer_._0/attention/Reshape_3/shape/1", "op": "Const", "attr": {"value": {"tensor": {"dtype": "DT_INT32", "tensorShape": {}}}, "dtype": {"type": "DT_INT32"}}}, {"name": "StatefulPartitionedCall/tf_distil_bert_for_sequence_classification/distilbert/transformer/layer_._0/attention/Reshape_3/shape/2", "op": "Const", "attr": {"value": {"tensor": {"dtype": "DT_INT32", "tensorShape": {}}}, "dtype": {"type": "DT_INT32"}}}, {"name": "StatefulPartitionedCall/tf_distil_bert_for_sequence_classification/distilbert/transformer/layer_._0/attention/strided_slice_3/stack", "op": "Const", "attr": {"value": {"tensor": {"dtype": "DT_INT32", "tensorShape": {"dim": [{"size": "1"}]}}}, "dtype": {"type": "DT_INT32"}}}, {"name": "StatefulPartitionedCall/tf_distil_bert_for_sequence_classification/distilbert/transformer/layer_._0/attention/strided_slice_3/stack_1", "op": "Const", "attr": {"value": {"tensor": {"dtype": "DT_INT32", "tensorShape": {"dim": [{"size": "1"}]}}}, "dtype": {"type": "DT_INT32"}}}, {"name": "StatefulPartitionedCall/tf_distil_bert_for_sequence_classification/distilbert/transformer/layer_._0/attention/strided_slice_3/stack_2", "op": "Const", "attr": {"dtype": {"type": "DT_INT32"}, "value": {"tensor": {"dtype": "DT_INT32", "tensorShape": {"dim": [{"size": "1"}]}}}}}, {"name": "StatefulPartitionedCall/tf_distil_bert_for_sequence_classification/distilbert/transformer/layer_._0/attention/v_lin/Tensordot/Const", "op": "Const", "attr": {"dtype": {"type": "DT_INT32"}, "value": {"tensor": {"dtype": "DT_INT32", "tensorShape": {"dim": [{"size": "1"}]}}}}}, {"name": "StatefulPartitionedCall/tf_distil_bert_for_sequence_classification/distilbert/transformer/layer_._0/attention/v_lin/Tensordot/axes", "op": "Const", "attr": {"dtype": {"type": "DT_INT32"}, "value": {"tensor": {"dtype": "DT_INT32", "tensorShape": {"dim": [{"size": "1"}]}}}}}, {"name": "StatefulPartitionedCall/tf_distil_bert_for_sequence_classification/distilbert/transformer/layer_._0/attention/v_lin/Tensordot/GatherV2_1/axis", "op": "Const", "attr": {"value": {"tensor": {"dtype": "DT_INT32", "tensorShape": {}}}, "dtype": {"type": "DT_INT32"}}}, {"name": "StatefulPartitionedCall/tf_distil_bert_for_sequence_classification/distilbert/transformer/layer_._0/attention/v_lin/Tensordot/Const_1", "op": "Const", "attr": {"value": {"tensor": {"dtype": "DT_INT32", "tensorShape": {"dim": [{"size": "1"}]}}}, "dtype": {"type": "DT_INT32"}}}, {"name": "StatefulPartitionedCall/tf_distil_bert_for_sequence_classification/distilbert/transformer/layer_._0/attention/v_lin/Tensordot/ReadVariableOp", "op": "Const", "attr": {"dtype": {"type": "DT_FLOAT"}, "value": {"tensor": {"dtype": "DT_FLOAT", "tensorShape": {"dim": [{"size": "768"}, {"size": "768"}]}}}}}, {"name": "StatefulPartitionedCall/tf_distil_bert_for_sequence_classification/distilbert/transformer/layer_._0/attention/v_lin/Tensordot/free", "op": "Const", "attr": {"dtype": {"type": "DT_INT32"}, "value": {"tensor": {"dtype": "DT_INT32", "tensorShape": {"dim": [{"size": "2"}]}}}}}, {"name": "StatefulPartitionedCall/tf_distil_bert_for_sequence_classification/distilbert/transformer/layer_._0/attention/v_lin/Tensordot/GatherV2/axis", "op": "Const", "attr": {"value": {"tensor": {"dtype": "DT_INT32", "tensorShape": {}}}, "dtype": {"type": "DT_INT32"}}}, {"name": "StatefulPartitionedCall/tf_distil_bert_for_sequence_classification/distilbert/transformer/layer_._0/attention/v_lin/Tensordot/Const_2", "op": "Const", "attr": {"dtype": {"type": "DT_INT32"}, "value": {"tensor": {"dtype": "DT_INT32", "tensorShape": {"dim": [{"size": "1"}]}}}}}, {"name": "StatefulPartitionedCall/tf_distil_bert_for_sequence_classification/distilbert/transformer/layer_._0/attention/v_lin/Tensordot/concat_1/axis", "op": "Const", "attr": {"value": {"tensor": {"dtype": "DT_INT32", "tensorShape": {}}}, "dtype": {"type": "DT_INT32"}}}, {"name": "StatefulPartitionedCall/tf_distil_bert_for_sequence_classification/distilbert/transformer/layer_._0/attention/v_lin/BiasAdd/ReadVariableOp", "op": "Const", "attr": {"value": {"tensor": {"dtype": "DT_FLOAT", "tensorShape": {"dim": [{"size": "768"}]}}}, "dtype": {"type": "DT_FLOAT"}}}, {"name": "StatefulPartitionedCall/tf_distil_bert_for_sequence_classification/distilbert/transformer/layer_._0/attention/Reshape_2/shape/1", "op": "Const", "attr": {"value": {"tensor": {"dtype": "DT_INT32", "tensorShape": {}}}, "dtype": {"type": "DT_INT32"}}}, {"name": "StatefulPartitionedCall/tf_distil_bert_for_sequence_classification/distilbert/transformer/layer_._0/attention/Reshape_2/shape/2", "op": "Const", "attr": {"dtype": {"type": "DT_INT32"}, "value": {"tensor": {"dtype": "DT_INT32", "tensorShape": {}}}}}, {"name": "StatefulPartitionedCall/tf_distil_bert_for_sequence_classification/distilbert/transformer/layer_._0/attention/Cast/x", "op": "Const", "attr": {"value": {"tensor": {"dtype": "DT_INT32", "tensorShape": {}}}, "dtype": {"type": "DT_INT32"}}}, {"name": "StatefulPartitionedCall/tf_distil_bert_for_sequence_classification/distilbert/transformer/layer_._0/attention/transpose_2/perm", "op": "Const", "attr": {"value": {"tensor": {"dtype": "DT_INT32", "tensorShape": {"dim": [{"size": "4"}]}}}, "dtype": {"type": "DT_INT32"}}}, {"name": "StatefulPartitionedCall/tf_distil_bert_for_sequence_classification/distilbert/transformer/layer_._0/attention/transpose_3/perm", "op": "Const", "attr": {"dtype": {"type": "DT_INT32"}, "value": {"tensor": {"dtype": "DT_INT32", "tensorShape": {"dim": [{"size": "4"}]}}}}}, {"name": "StatefulPartitionedCall/tf_distil_bert_for_sequence_classification/distilbert/transformer/layer_._0/attention/strided_slice/stack", "op": "Const", "attr": {"value": {"tensor": {"dtype": "DT_INT32", "tensorShape": {"dim": [{"size": "1"}]}}}, "dtype": {"type": "DT_INT32"}}}, {"name": "StatefulPartitionedCall/tf_distil_bert_for_sequence_classification/distilbert/transformer/layer_._0/attention/strided_slice/stack_1", "op": "Const", "attr": {"value": {"tensor": {"dtype": "DT_INT32", "tensorShape": {"dim": [{"size": "1"}]}}}, "dtype": {"type": "DT_INT32"}}}, {"name": "StatefulPartitionedCall/tf_distil_bert_for_sequence_classification/distilbert/transformer/layer_._0/attention/strided_slice/stack_2", "op": "Const", "attr": {"value": {"tensor": {"dtype": "DT_INT32", "tensorShape": {"dim": [{"size": "1"}]}}}, "dtype": {"type": "DT_INT32"}}}, {"name": "StatefulPartitionedCall/tf_distil_bert_for_sequence_classification/distilbert/transformer/layer_._0/attention/Reshape_4/shape/1", "op": "Const", "attr": {"value": {"tensor": {"dtype": "DT_INT32", "tensorShape": {}}}, "dtype": {"type": "DT_INT32"}}}, {"name": "StatefulPartitionedCall/tf_distil_bert_for_sequence_classification/distilbert/transformer/layer_._0/attention/mul_2", "op": "Const", "attr": {"dtype": {"type": "DT_INT32"}, "value": {"tensor": {"dtype": "DT_INT32", "tensorShape": {}}}}}, {"name": "StatefulPartitionedCall/tf_distil_bert_for_sequence_classification/distilbert/transformer/layer_._0/attention/out_lin/Tensordot/free", "op": "Const", "attr": {"value": {"tensor": {"dtype": "DT_INT32", "tensorShape": {"dim": [{"size": "2"}]}}}, "dtype": {"type": "DT_INT32"}}}, {"name": "StatefulPartitionedCall/tf_distil_bert_for_sequence_classification/distilbert/transformer/layer_._0/attention/out_lin/Tensordot/GatherV2/axis", "op": "Const", "attr": {"dtype": {"type": "DT_INT32"}, "value": {"tensor": …
se_1/perm", "shape": [4], "dtype": "int32"}, {"name": "StatefulPartitionedCall/tf_distil_bert_for_sequence_classification/distilbert/transformer/layer_._2/attention/add/y", "shape": [], "dtype": "float32"}, {"name": "StatefulPartitionedCall/tf_distil_bert_for_sequence_classification/distilbert/transformer/layer_._2/attention/mul_1/x", "shape": [], "dtype": "float32"}, {"name": "StatefulPartitionedCall/tf_distil_bert_for_sequence_classification/distilbert/transformer/layer_._2/attention/sub/x", "shape": [], "dtype": "float32"}, {"name": "StatefulPartitionedCall/tf_distil_bert_for_sequence_classification/distilbert/transformer/layer_._2/attention/Reshape_3/shape/1", "shape": [], "dtype": "int32"}, {"name": "StatefulPartitionedCall/tf_distil_bert_for_sequence_classification/distilbert/transformer/layer_._2/attention/Reshape_3/shape/2", "shape": [], "dtype": "int32"}, {"name": "StatefulPartitionedCall/tf_distil_bert_for_sequence_classification/distilbert/transformer/layer_._2/attention/strided_slice_3/stack", "shape": [1], "dtype": "int32"}, {"name": "StatefulPartitionedCall/tf_distil_bert_for_sequence_classification/distilbert/transformer/layer_._2/attention/strided_slice_3/stack_1", "shape": [1], "dtype": "int32"}, {"name": "StatefulPartitionedCall/tf_distil_bert_for_sequence_classification/distilbert/transformer/layer_._2/attention/strided_slice_3/stack_2", "shape": [1], "dtype": "int32"}, {"name": "StatefulPartitionedCall/tf_distil_bert_for_sequence_classification/distilbert/transformer/layer_._2/attention/v_lin/Tensordot/Const", "shape": [1], "dtype": "int32"}, {"name": "StatefulPartitionedCall/tf_distil_bert_for_sequence_classification/distilbert/transformer/layer_._2/attention/v_lin/Tensordot/axes", "shape": [1], "dtype": "int32"}, {"name": "StatefulPartitionedCall/tf_distil_bert_for_sequence_classification/distilbert/transformer/layer_._2/attention/v_lin/Tensordot/GatherV2_1/axis", "shape": [], "dtype": "int32"}, {"name": "StatefulPartitionedCall/tf_distil_bert_for_sequence_classification/distilbert/transformer/layer_._2/attention/v_lin/Tensordot/Const_1", "shape": [1], "dtype": "int32"}, {"name": "StatefulPartitionedCall/tf_distil_bert_for_sequence_classification/distilbert/transformer/layer_._2/attention/v_lin/Tensordot/ReadVariableOp", "shape": [768, 768], "dtype": "float32"}, {"name": "StatefulPartitionedCall/tf_distil_bert_for_sequence_classification/distilbert/transformer/layer_._2/attention/v_lin/Tensordot/free", "shape": [2], "dtype": "int32"}, {"name": "StatefulPartitionedCall/tf_distil_bert_for_sequence_classification/distilbert/transformer/layer_._2/attention/v_lin/Tensordot/GatherV2/axis", "shape": [], "dtype": "int32"}, {"name": "StatefulPartitionedCall/tf_distil_bert_for_sequence_classification/distilbert/transformer/layer_._2/attention/v_lin/Tensordot/Const_2", "shape": [1], "dtype": "int32"}, {"name": "StatefulPartitionedCall/tf_distil_bert_for_sequence_classification/distilbert/transformer/layer_._2/attention/v_lin/Tensordot/concat_1/axis", "shape": [], "dtype": "int32"}, {"name": "StatefulPartitionedCall/tf_distil_bert_for_sequence_classification/distilbert/transformer/layer_._2/attention/v_lin/BiasAdd/ReadVariableOp", "shape": [768], "dtype": "float32"}, {"name": "StatefulPartitionedCall/tf_distil_bert_for_sequence_classification/distilbert/transformer/layer_._2/attention/Reshape_2/shape/1", "shape": [], "dtype": "int32"}, {"name": "StatefulPartitionedCall/tf_distil_bert_for_sequence_classification/distilbert/transformer/layer_._2/attention/Reshape_2/shape/2", "shape": [], "dtype": "int32"}, {"name": "StatefulPartitionedCall/tf_distil_bert_for_sequence_classification/distilbert/transformer/layer_._2/attention/Cast/x", "shape": [], "dtype": "int32"}, {"name": "StatefulPartitionedCall/tf_distil_bert_for_sequence_classification/distilbert/transformer/layer_._2/attention/transpose_2/perm", "shape": [4], "dtype": "int32"}, {"name": "StatefulPartitionedCall/tf_distil_bert_for_sequence_classification/distilbert/transformer/layer_._2/attention/transpose_3/perm", "shape": [4], "dtype": "int32"}, {"name": "StatefulPartitionedCall/tf_distil_bert_for_sequence_classification/distilbert/transformer/layer_._2/attention/strided_slice/stack", "shape": [1], "dtype": "int32"}, {"name": "StatefulPartitionedCall/tf_distil_bert_for_sequence_classification/distilbert/transformer/layer_._2/attention/strided_slice/stack_1", "shape": [1], "dtype": "int32"}, {"name": "StatefulPartitionedCall/tf_distil_bert_for_sequence_classification/distilbert/transformer/layer_._2/attention/strided_slice/stack_2", "shape": [1], "dtype": "int32"}, {"name": "StatefulPartitionedCall/tf_distil_bert_for_sequence_classification/distilbert/transformer/layer_._2/attention/Reshape_4/shape/1", "shape": [], "dtype": "int32"}, {"name": "StatefulPartitionedCall/tf_distil_bert_for_sequence_classification/distilbert/transformer/layer_._2/attention/mul_2", "shape": [], "dtype": "int32"}, {"name": "StatefulPartitionedCall/tf_distil_bert_for_sequence_classification/distilbert/transformer/layer_._2/attention/out_lin/Tensordot/free", "shape": [2], "dtype": "int32"}, {"name": "StatefulPartitionedCall/tf_distil_bert_for_sequence_classification/distilbert/transformer/layer_._2/attention/out_lin/Tensordot/GatherV2/axis", "shape": [], "dtype": "int32"}, {"name": "StatefulPartitionedCall/tf_distil_bert_for_sequence_classification/distilbert/transformer/layer_._2/attention/out_lin/Tensordot/Const_2", "shape": [1], "dtype": "int32"}, {"name": "StatefulPartitionedCall/tf_distil_bert_for_sequence_classification/distilbert/transformer/layer_._2/attention/out_lin/Tensordot/concat_1/axis", "shape": [], "dtype": "int32"}, {"name": "StatefulPartitionedCall/tf_distil_bert_for_sequence_classification/distilbert/transformer/layer_._2/attention/out_lin/BiasAdd/ReadVariableOp", "shape": [768], "dtype": "float32"}, {"name": "StatefulPartitionedCall/tf_distil_bert_for_sequence_classification/distilbert/transformer/layer_._1/output_layer_norm/batchnorm/ReadVariableOp", "shape": [768], "dtype": "float32"}, {"name": "StatefulPartitionedCall/tf_distil_bert_for_sequence_classification/distilbert/transformer/layer_._1/ffn/lin2/Tensordot/Const", "shape": [1], "dtype": "int32"}, {"name": "StatefulPartitionedCall/tf_distil_bert_for_sequence_classification/distilbert/transformer/layer_._1/ffn/lin2/Tensordot/axes", "shape": [1], "dtype": "int32"}, {"name": "StatefulPartitionedCall/tf_distil_bert_for_sequence_classification/distilbert/transformer/layer_._1/ffn/lin2/Tensordot/GatherV2_1/axis", "shape": [], "dtype": "int32"}, {"name": "StatefulPartitionedCall/tf_distil_bert_for_sequence_classification/distilbert/transformer/layer_._1/ffn/lin2/Tensordot/Const_1", "shape": [1], "dtype": "int32"}, {"name": "StatefulPartitionedCall/tf_distil_bert_for_sequence_classification/distilbert/transformer/layer_._1/ffn/lin2/Tensordot/ReadVariableOp", "shape": [3072, 768], "dtype": "float32"}, {"name": "StatefulPartitionedCall/tf_distil_bert_for_sequence_classification/distilbert/transformer/layer_._1/ffn/Gelu/mul/x", "shape": [], "dtype": "float32"}, {"name": "StatefulPartitionedCall/tf_distil_bert_for_sequence_classification/distilbert/transformer/layer_._1/ffn/Gelu/add/x", "shape": [], "dtype": "float32"}, {"name": "StatefulPartitionedCall/tf_distil_bert_for_sequence_classification/distilbert/transformer/layer_._1/ffn/lin1/Tensordot/Const", "shape": [1], "dtype": "int32"}, {"name": "StatefulPartitionedCall/tf_distil_bert_for_sequence_classification/distilbert/transformer/layer_._1/ffn/lin1/Tensordot/axes", "shape": [1], "dtype": "int32"}, {"name": "StatefulPartitionedCall/tf_distil_bert_for_sequence_classification/distilbert/transformer/layer_._1/ffn/lin1/Tensordot/GatherV2_1/axis", "shape": [], "dtype": "int32"}, {"name": "StatefulPartitionedCall/tf_distil_bert_for_sequence_classification/distilbert/transformer/layer_._1/ffn/lin1/Tensordot/Const_1", "shape": [1], "dtype": "int32"}, {"name": "StatefulPartitionedCall/tf_distil_bert_for_sequence_classification/distilbert/transformer/layer_._1/ffn/lin1/Tensordot/ReadVariableOp", "shape": [768, 3072], "dtype": "float32"}, {"name": "StatefulPartitionedCall/tf_distil_bert_for_sequence_classification/distilbert/transformer/layer_._1/ffn/lin1/Tensordot/free", "shape": [2], "dtype": "int32"}, {"name": "StatefulPartitionedCall/tf_distil_bert_for_sequence_classification/distilbert/transformer/layer_._1/ffn/lin1/Tensordot/GatherV2/axis", "shape": [], "dtype": "int32"}, {"name": "StatefulPartitionedCall/tf_distil_bert_for_sequence_classification/distilbert/transformer/layer_._1/ffn/lin1/Tensordot/Const_2", "shape": [1], "dtype": "int32"}, {"name": "StatefulPartitionedCall/tf_distil_bert_for_sequence_classification/distilbert/transformer/layer_._1/ffn/lin1/Tensordot/concat_1/axis", "shape": [], "dtype": "int32"}, {"name": "StatefulPartitionedCall/tf_distil_bert_for_sequence_classification/distilbert/transformer/layer_._1/ffn/lin1/BiasAdd/ReadVariableOp", "shape": [3072], "dtype": "float32"}, {"name": "ConstantFolding/StatefulPartitionedCall/tf_distil_bert_for_sequence_classification/distilbert/transformer/layer_._1/ffn/Gelu/truediv_recip", "shape": [], "dtype": "float32"}, {"name": "StatefulPartitionedCall/tf_distil_bert_for_sequence_classification/distilbert/transformer/layer_._1/ffn/lin2/Tensordot/free", "shape": [2], "dtype": "int32"}, {"name": "StatefulPartitionedCall/tf_distil_bert_for_sequence_classification/distilbert/transformer/layer_._1/ffn/lin2/Tensordot/GatherV2/axis", "shape": [], "dtype": "int32"}, {"name": "StatefulPartitionedCall/tf_distil_bert_for_sequence_classification/distilbert/transformer/layer_._1/ffn/lin2/Tensordot/Const_2", "shape": [1], "dtype": "int32"}, {"name": "StatefulPartitionedCall/tf_distil_bert_for_sequence_classification/distilbert/transformer/layer_._1/ffn/lin2/Tensordot/concat_1/axis", "shape": [], "dtype": "int32"}, {"name": "StatefulPartitionedCall/tf_distil_bert_for_sequence_classification/distilbert/transformer/layer_._1/ffn/lin2/BiasAdd/ReadVariableOp", "shape": [768], "dtype": "float32"}, {"name": "StatefulPartitionedCall/tf_distil_bert_for_sequence_classification/distilbert/transformer/layer_._1/sa_layer_norm/batchnorm/ReadVariableOp", "shape": [768], "dtype": "float32"}, {"name": "StatefulPartitionedCall/tf_distil_bert_for_sequence_classification/distilbert/transformer/layer_._1/attention/out_lin/Tensordot/Const", "shape": [1], "dtype": "int32"}, {"name": "StatefulPartitionedCall/tf_distil_bert_for_sequence_classification/distilbert/transformer/layer_._1/attention/out_lin/Tensordot/axes", "shape": [1], "dtype": "int32"}, {"name": "StatefulPartitionedCall/tf_distil_bert_for_sequence_classification/distilbert/transformer/layer_._1/attention/out_lin/Tensordot/GatherV2_1/axis", "shape": [], "dtype": "int32"}, {"name": "StatefulPartitionedCall/tf_distil_bert_for_sequence_classification/distilbert/transformer/layer_._1/attention/out_lin/Tensordot/Const_1", "shape": [1], "dtype": "int32"}, {"name": "StatefulPartitionedCall/tf_distil_bert_for_sequence_classification/distilbert/transformer/layer_._1/attention/out_lin/Tensordot/ReadVariableOp", "shape": [768, 768], "dtype": "float32"}, {"name": "StatefulPartitionedCall/tf_distil_bert_for_sequence_classification/distilbert/transformer/layer_._1/attention/q_lin/Tensordot/Const", "shape": [1], "dtype": "int32"}, {"name": "StatefulPartitionedCall/tf_distil_bert_for_sequence_classification/distilbert/transformer/layer_._1/attention/q_lin/Tensordot/axes", "shape": [1], "dtype": "int32"}, {"name": "StatefulPartitionedCall/tf_distil_bert_for_sequence_classification/distilbert/transformer/layer_._1/attention/q_lin/Tensordot/GatherV2_1/axis", "shape": [], "dtype": "int32"}, {"name": "StatefulPartitionedCall/tf_distil_bert_for_sequence_classification/distilbert/transformer/layer_._1/attention/q_lin/Tensordot/Const_1", "shape": [1], "dtype": "int32"}, {"name": "StatefulPartitionedCall/tf_distil_bert_for_sequence_classification/distilbert/transformer/layer_._1/attention/q_lin/Tensordot/ReadVariableOp", "shape": [768, 768], "dtype": "float32"}, {"name": "StatefulPartitionedCall/tf_distil_bert_for_sequence_classification/distilbert/transformer/layer_._1/attention/q_lin/Tensordot/free", "shape": [2], "dtype": "int32"}, {"name": "StatefulPartitionedCall/tf_distil_bert_for_sequence_classification/distilbert/transformer/layer_._1/attention/q_lin/Tensordot/GatherV2/axis", "shape": [], "dtype": "int32"}, {"name": "StatefulPartitionedCall/tf_distil_bert_for_sequence_classification/distilbert/transformer/layer_._1/attention/q_lin/Tensordot/Const_2", "shape": [1], "dtype": "int32"}, {"name": "StatefulPartitionedCall/tf_distil_bert_for_sequence_classification/distilbert/transformer/layer_._1/attention/q_lin/Tensordot/concat_1/axis", "shape": [], "dtype": "int32"}, {"name": "StatefulPartitionedCall/tf_distil_bert_for_sequence_classification/distilbert/transformer/layer_._1/attention/q_lin/BiasAdd/ReadVariableOp", "shape": [768], "dtype": "float32"}, {"name": "StatefulPartitionedCall/tf_distil_bert_for_sequence_classification/distilbert/transformer/layer_._1/attention/Reshape/shape/1", "shape": [], "dtype": "int32"}, {"name": "StatefulPartitionedCall/tf_distil_bert_for_sequence_classification/distilbert/transformer/layer_._1/attention/Reshape/shape/2", "shape": [], "dtype": "int32"}, {"name": "StatefulPartitionedCall/tf_distil_bert_for_sequence_classification/distilbert/transformer/layer_._1/attention/transpose/perm", "shape": [4], "dtype": "int32"}, {"name": "StatefulPartitionedCall/tf_distil_bert_for_sequence_classification/distilbert/transformer/layer_._1/attention/Rsqrt", "shape": [], "dtype": "float32"}, {"name": "StatefulPartitionedCall/tf_distil_bert_for_sequence_classification/distilbert/transformer/layer_._1/attention/k_lin/Tensordot/Const", "shape": [1], "dtype": "int32"}, {"name": "StatefulPartitionedCall/tf_distil_bert_for_sequence_classification/distilbert/transformer/layer_._1/attention/k_lin/Tensordot/axes", "shape": [1], "dtype": "int32"}, {"name": "StatefulPartitionedCall/tf_distil_bert_for_sequence_classification/distilbert/transformer/layer_._1/attention/k_lin/Tensordot/GatherV2_1/axis", "shape": [], "dtype": "int32"}, {"name": "StatefulPartitionedCall/tf_distil_bert_for_sequence_classification/distilbert/transformer/layer_._1/attention/k_lin/Tensordot/Const_1", "shape": [1], "dtype": "int32"}, {"name": "StatefulPartitionedCall/tf_distil_bert_for_sequence_classification/distilbert/transformer/layer_._1/attention/k_lin/Tensordot/ReadVariableOp", "shape": [768, 768], "dtype": "float32"}, {"name": "StatefulPartitionedCall/tf_distil_bert_for_sequence_classification/distilbert/transformer/layer_._1/attention/k_lin/Tensordot/free", "shape": [2], "dtype": "int32"}, {"name": "StatefulPartitionedCall/tf_distil_bert_for_sequence_classification/distilbert/transformer/layer_._1/attention/k_lin/Tensordot/GatherV2/axis", "shape": [], "dtype": "int32"}, {"name": "StatefulPartitionedCall/tf_distil_bert_for_sequence_classification/distilbert/transformer/layer_._1/attention/k_lin/Tensordot/Const_2", "shape": [1], "dtype": "int32"}, {"name": "StatefulPartitionedCall/tf_distil_bert_for_sequence_classification/distilbert/transformer/layer_._1/attention/k_lin/Tensordot/concat_1/axis", "shape": [], "dtype": "int32"}, {"name": "StatefulPartitionedCall/tf_distil_bert_for_sequence_classification/distilbert/transformer/layer_._1/attention/k_lin/BiasAdd/ReadVariableOp", "shape": [768], "dtype": "float32"}, {"name": "StatefulPartitionedCall/tf_distil_bert_for_sequence_classification/distilbert/transformer/layer_._1/attention/Reshape_1/shape/1", "shape": [], "dtype": "int32"}, {"name": "StatefulPartitionedCall/tf_distil_bert_for_sequence_classification/distilbert/transformer/layer_._1/attention/Reshape_1/shape/2", "shape": [], "dtype": "int32"}, {"name": "StatefulPartitionedCall/tf_distil_bert_for_sequence_classification/distilbert/transformer/layer_._1/attention/transpose_1/perm", "shape": [4], "dtype": "int32"}, {"name": "StatefulPartitionedCall/tf_distil_bert_for_sequence_classification/distilbert/transformer/layer_._1/attention/add/y", "shape": [], "dtype": "float32"}, {"name": "StatefulPartitionedCall/tf_distil_bert_for_sequence_classification/distilbert/transformer/layer_._1/attention/mul_1/x", "shape": [], "dtype": "float32"}, {"name": "StatefulPartitionedCall/tf_distil_bert_for_sequence_classification/distilbert/transformer/layer_._1/attention/sub/x", "shape": [], "dtype": "float32"}, {"name": "StatefulPartitionedCall/tf_distil_bert_for_sequence_classification/distilbert/transformer/layer_._1/attention/Reshape_3/shape/1", "shape": [], "dtype": "int32"}, {"name": "StatefulPartitionedCall/tf_distil_bert_for_sequence_classification/distilbert/transformer/layer_._1/attention/Reshape_3/shape/2", "shape": [], "dtype": "int32"}, {"name": "StatefulPartitionedCall/tf_distil_bert_for_sequence_classification/distilbert/transformer/layer_._1/attention/strided_slice_3/stack", "shape": [1], "dtype": "int32"}, {"name": "StatefulPartitionedCall/tf_distil_bert_for_sequence_classification/distilbert/transformer/layer_._1/attention/strided_slice_3/stack_1", "shape": [1], "dtype": "int32"}, {"name": "StatefulPartitionedCall/tf_distil_bert_for_sequence_classification/distilbert/transformer/layer_._1/attention/strided_slice_3/stack_2", "shape": [1], "dtype": "int32"}, {"name": "StatefulPartitionedCall/tf_distil_bert_for_sequence_classification/distilbert/transformer/layer_._1/attention/v_lin/Tensordot/Const", "shape": [1], "dtype": "int32"}, {"name": "StatefulPartitionedCall/tf_distil_bert_for_sequence_classification/distilbert/transformer/layer_._1/attention/v_lin/Tensordot/axes", "shape": [1], "dtype": "int32"}, {"name": "StatefulPartitionedCall/tf_distil_bert_for_sequence_classification/distilbert/transformer/layer_._1/attention/v_lin/Tensordot/GatherV2_1/axis", "shape": [], "dtype": "int32"}, {"name": "StatefulPartitionedCall/tf_distil_bert_for_sequence_classification/distilbert/transformer/layer_._1/attention/v_lin/Tensordot/Const_1", "shape": [1], "dtype": "int32"}, {"name": "StatefulPartitionedCall/tf_distil_bert_for_sequence_classification/distilbert/transformer/layer_._1/attention/v_lin/Tensordot/ReadVariableOp", "shape": [768, 768], "dtype": "float32"}, {"name": "StatefulPartitionedCall/tf_distil_bert_for_sequence_classification/distilbert/transformer/layer_._1/attention/v_lin/Tensordot/free", "shape": [2], "dtype": "int32"}, {"name": "StatefulPartitionedCall/tf_distil_bert_for_sequence_classification/distilbert/transformer/layer_._1/attention/v_lin/Tensordot/GatherV2/axis", "shape": [], "dtype": "int32"}, {"name": "StatefulPartitionedCall/tf_distil_bert_for_sequence_classification/distilbert/transformer/layer_._1/attention/v_lin/Tensordot/Const_2", "shape": [1], "dtype": "int32"}, {"name": "StatefulPartitionedCall/tf_distil_bert_for_sequence_classification/distilbert/transformer/layer_._1/attention/v_lin/Tensordot/concat_1/axis", "shape": [], "dtype": "int32"}, {"name": "StatefulPartitionedCall/tf_distil_bert_for_sequence_classification/distilbert/transformer/layer_._1/attention/v_lin/BiasAdd/ReadVariableOp", "shape": [768], "dtype": "float32"}, {"name": "StatefulPartitionedCall/tf_distil_bert_for_sequence_classification/distilbert/transformer/layer_._1/attention/Reshape_2/shape/1", "shape": [], "dtype": "int32"}, {"name": "StatefulPartitionedCall/tf_distil_bert_for_sequence_classification/distilbert/transformer/layer_._1/attention/Reshape_2/shape/2", "shape": [], "dtype": "int32"}, {"name": "StatefulPartitionedCall/tf_distil_bert_for_sequence_classification/distilbert/transformer/layer_._1/attention/Cast/x", "shape": [], "dtype": "int32"}, {"name": "StatefulPartitionedCall/tf_distil_bert_for_sequence_classification/distilbert/transformer/layer_._1/attention/transpose_2/perm", "shape": [4], "dtype": "int32"}, {"name": "StatefulPartitionedCall/tf_distil_bert_for_sequence_classification/distilbert/transformer/layer_._1/attention/transpose_3/perm", "shape": [4], "dtype": "int32"}, {"name": "StatefulPartitionedCall/tf_distil_bert_for_sequence_classification/distilbert/transformer/layer_._1/attention/strided_slice/stack", "shape": [1], "dtype": "int32"}, {"name": "StatefulPartitionedCall/tf_distil_bert_for_sequence_classification/distilbert/transformer/layer_._1/attention/strided_slice/stack_1", "shape": [1], "dtype": "int32"}, {"name": "StatefulPartitionedCall/tf_distil_bert_for_sequence_classification/distilbert/transformer/layer_._1/attention/strided_slice/stack_2", "shape": [1], "dtype": "int32"}, {"name": "StatefulPartitionedCall/tf_distil_bert_for_sequence_classification/distilbert/transformer/layer_._1/attention/Reshape_4/shape/1", "shape": [], "dtype": "int32"}, {"name": "StatefulPartitionedCall/tf_distil_bert_for_sequence_classification/distilbert/transformer/layer_._1/attention/mul_2", "shape": [], "dtype": "int32"}, {"name": "StatefulPartitionedCall/tf_distil_bert_for_sequence_classification/distilbert/transformer/layer_._1/attention/out_lin/Tensordot/free", "shape": [2], "dtype": "int32"}, {"name": "StatefulPartitionedCall/tf_distil_bert_for_sequence_classification/distilbert/transformer/layer_._1/attention/out_lin/Tensordot/GatherV2/axis", "shape": [], "dtype": "int32"}, {"name": "StatefulPartitionedCall/tf_distil_bert_for_sequence_classification/distilbert/transformer/layer_._1/attention/out_lin/Tensordot/Const_2", "shape": [1], "dtype": "int32"}, {"name": "StatefulPartitionedCall/tf_distil_bert_for_sequence_classification/distilbert/transformer/layer_._1/attention/out_lin/Tensordot/concat_1/axis", "shape": [], "dtype": "int32"}, {"name": "StatefulPartitionedCall/tf_distil_bert_for_sequence_classification/distilbert/transformer/layer_._1/attention/out_lin/BiasAdd/ReadVariableOp", "shape": [768], "dtype": "float32"}, {"name": "StatefulPartitionedCall/tf_distil_bert_for_sequence_classification/distilbert/transformer/layer_._0/output_layer_norm/batchnorm/ReadVariableOp", "shape": [768], "dtype": "float32"}, {"name": "StatefulPartitionedCall/tf_distil_bert_for_sequence_classification/distilbert/transformer/layer_._0/ffn/lin2/Tensordot/Const", "shape": [1], "dtype": "int32"}, {"name": "StatefulPartitionedCall/tf_distil_bert_for_sequence_classification/distilbert/transformer/layer_._0/ffn/lin2/Tensordot/axes", "shape": [1], "dtype": "int32"}, {"name": "StatefulPartitionedCall/tf_distil_bert_for_sequence_classification/distilbert/transformer/layer_._0/ffn/lin2/Tensordot/GatherV2_1/axis", "shape": [], "dtype": "int32"}, {"name": "StatefulPartitionedCall/tf_distil_bert_for_sequence_classification/distilbert/transformer/layer_._0/ffn/lin2/Tensordot/Const_1", "shape": [1], "dtype": "int32"}, {"name": "StatefulPartitionedCall/tf_distil_bert_for_sequence_classification/distilbert/transformer/layer_._0/ffn/lin2/Tensordot/ReadVariableOp", "shape": [3072, 768], "dtype": "float32"}, {"name": "StatefulPartitionedCall/tf_distil_bert_for_sequence_classification/distilbert/transformer/layer_._0/ffn/Gelu/mul/x", "shape": [], "dtype": "float32"}, {"name": "StatefulPartitionedCall/tf_distil_bert_for_sequence_classification/distilbert/transformer/layer_._0/ffn/Gelu/add/x", "shape": [], "dtype": "float32"}, {"name": "StatefulPartitionedCall/tf_distil_bert_for_sequence_classification/distilbert/transformer/layer_._0/ffn/lin1/Tensordot/Const", "shape": [1], "dtype": "int32"}, {"name": "StatefulPartitionedCall/tf_distil_bert_for_sequence_classification/distilbert/transformer/layer_._0/ffn/lin1/Tensordot/axes", "shape": [1], "dtype": "int32"}, {"name": "StatefulPartitionedCall/tf_distil_bert_for_sequence_classification/distilbert/transformer/layer_._0/ffn/lin1/Tensordot/GatherV2_1/axis", "shape": [], "dtype": "int32"}, {"name": "StatefulPartitionedCall/tf_distil_bert_for_sequence_classification/distilbert/transformer/layer_._0/ffn/lin1/Tensordot/Const_1", "shape": [1], "dtype": "int32"}, {"name": "StatefulPartitionedCall/tf_distil_bert_for_sequence_classification/distilbert/transformer/layer_._0/ffn/lin1/Tensordot/ReadVariableOp", "shape": [768, 3072], "dtype": "float32"}, {"name": "StatefulPartitionedCall/tf_distil_bert_for_sequence_classification/distilbert/transformer/layer_._0/ffn/lin1/Tensordot/free", "shape": [2], "dtype": "int32"}, {"name": "StatefulPartitionedCall/tf_distil_bert_for_sequence_classification/distilbert/transformer/layer_._0/ffn/lin1/Tensordot/GatherV2/axis", "shape": [], "dtype": "int32"}, {"name": "StatefulPartitionedCall/tf_distil_bert_for_sequence_classification/distilbert/transformer/layer_._0/ffn/lin1/Tensordot/Const_2", "shape": [1], "dtype": "int32"}, {"name": "StatefulPartitionedCall/tf_distil_bert_for_sequence_classification/distilbert/transformer/layer_._0/ffn/lin1/Tensordot/concat_1/axis", "shape": [], "dtype": "int32"}, {"name": "StatefulPartitionedCall/tf_distil_bert_for_sequence_classification/distilbert/transformer/layer_._0/ffn/lin1/BiasAdd/ReadVariableOp", "shape": [3072], "dtype": "float32"}, {"name": "ConstantFolding/StatefulPartitionedCall/tf_distil_bert_for_sequence_classification/distilbert/transformer/layer_._0/ffn/Gelu/truediv_recip", "shape": [], "dtype": "float32"}, {"name": "StatefulPartitionedCall/tf_distil_bert_for_sequence_classification/distilbert/transformer/layer_._0/ffn/lin2/Tensordot/free", "shape": [2], "dtype": "int32"}, {"name": "StatefulPartitionedCall/tf_distil_bert_for_sequence_classification/distilbert/transformer/layer_._0/ffn/lin2/Tensordot/GatherV2/axis", "shape": [], "dtype": "int32"}, {"name": "StatefulPartitionedCall/tf_distil_bert_for_sequence_classification/distilbert/transformer/layer_._0/ffn/lin2/Tensordot/Const_2", "shape": [1], "dtype": "int32"}, {"name": "StatefulPartitionedCall/tf_distil_bert_for_sequence_classification/distilbert/transformer/layer_._0/ffn/lin2/Tensordot/concat_1/axis", "shape": [], "dtype": "int32"}, {"name": "StatefulPartitionedCall/tf_distil_bert_for_sequence_classification/distilbert/transformer/layer_._0/ffn/lin2/BiasAdd/ReadVariableOp", "shape": [768], "dtype": "float32"}, {"name": "StatefulPartitionedCall/tf_distil_bert_for_sequence_classification/distilbert/transformer/layer_._0/sa_layer_norm/batchnorm/ReadVariableOp", "shape": [768], "dtype": "float32"}, {"name": "StatefulPartitionedCall/tf_distil_bert_for_sequence_classification/distilbert/transformer/layer_._0/attention/out_lin/Tensordot/Const", "shape": [1], "dtype": "int32"}, {"name": "StatefulPartitionedCall/tf_distil_bert_for_sequence_classification/distilbert/transformer/layer_._0/attention/out_lin/Tensordot/axes", "shape": [1], "dtype": "int32"}, {"name": "StatefulPartitionedCall/tf_distil_bert_for_sequence_classification/distilbert/transformer/layer_._0/attention/out_lin/Tensordot/GatherV2_1/axis", "shape": [], "dtype": "int32"}, {"name": "StatefulPartitionedCall/tf_distil_bert_for_sequence_classification/distilbert/transformer/layer_._0/attention/out_lin/Tensordot/Const_1", "shape": [1], "dtype": "int32"}, {"name": "StatefulPartitionedCall/tf_distil_bert_for_sequence_classification/distilbert/transformer/layer_._0/attention/out_lin/Tensordot/ReadVariableOp", "shape": [768, 768], "dtype": "float32"}, {"name": "StatefulPartitionedCall/tf_distil_bert_for_sequence_classification/distilbert/transformer/layer_._0/attention/q_lin/Tensordot/Const", "shape": [1], "dtype": "int32"}, {"name": "StatefulPartitionedCall/tf_distil_bert_for_sequence_classification/distilbert/transformer/layer_._0/attention/q_lin/Tensordot/axes", "shape": [1], "dtype": "int32"}, {"name": "StatefulPartitionedCall/tf_distil_bert_for_sequence_classification/distilbert/transformer/layer_._0/attention/q_lin/Tensordot/GatherV2_1/axis", "shape": [], "dtype": "int32"}, {"name": "StatefulPartitionedCall/tf_distil_bert_for_sequence_classification/distilbert/transformer/layer_._0/attention/q_lin/Tensordot/Const_1", "shape": [1], "dtype": "int32"}, {"name": "StatefulPartitionedCall/tf_distil_bert_for_sequence_classification/distilbert/transformer/layer_._0/attention/q_lin/Tensordot/ReadVariableOp", "shape": [768, 768], "dtype": "float32"}, {"name": "StatefulPartitionedCall/tf_distil_bert_for_sequence_classification/distilbert/transformer/layer_._0/attention/q_lin/Tensordot/free", "shape": [2], "dtype": "int32"}, {"name": "StatefulPartitionedCall/tf_distil_bert_for_sequence_classification/distilbert/transformer/layer_._0/attention/q_lin/Tensordot/GatherV2/axis", "shape": [], "dtype": "int32"}, {"name": "StatefulPartitionedCall/tf_distil_bert_for_sequence_classification/distilbert/transformer/layer_._0/attention/q_lin/Tensordot/Const_2", "shape": [1], "dtype": "int32"}, {"name": "StatefulPartitionedCall/tf_distil_bert_for_sequence_classification/distilbert/transformer/layer_._0/attention/q_lin/Tensordot/concat_1/axis", "shape": [], "dtype": "int32"}, {"name": "StatefulPartitionedCall/tf_distil_bert_for_sequence_classification/distilbert/transformer/layer_._0/attention/q_lin/BiasAdd/ReadVariableOp", "shape": [768], "dtype": "float32"}, {"name": "StatefulPartitionedCall/tf_distil_bert_for_sequence_classification/distilbert/transformer/layer_._0/attention/Reshape/shape/1", "shape": [], "dtype": "int32"}, {"name": "StatefulPartitionedCall/tf_distil_bert_for_sequence_classification/distilbert/transformer/layer_._0/attention/Reshape/shape/2", "shape": [], "dtype": "int32"}, {"name": "StatefulPartitionedCall/tf_distil_bert_for_sequence_classification/distilbert/transformer/layer_._0/attention/transpose/perm", "shape": [4], "dtype": "int32"}, {"name": "StatefulPartitionedCall/tf_distil_bert_for_sequence_classification/distilbert/transformer/layer_._0/attention/Rsqrt", "shape": [], "dtype": "float32"}, {"name": "StatefulPartitionedCall/tf_distil_bert_for_sequence_classification/distilbert/transformer/layer_._0/attention/k_lin/Tensordot/Const", "shape": [1], "dtype": "int32"}, {"name": "StatefulPartitionedCall/tf_distil_bert_for_sequence_classification/distilbert/transformer/layer_._0/attention/k_lin/Tensordot/axes", "shape": [1], "dtype": "int32"}, {"name": "StatefulPartitionedCall/tf_distil_bert_for_sequence_classification/distilbert/transformer/layer_._0/attention/k_lin/Tensordot/GatherV2_1/axis", "shape": [], "dtype": "int32"}, {"name": "StatefulPartitionedCall/tf_distil_bert_for_sequence_classification/distilbert/transformer/layer_._0/attention/k_lin/Tensordot/Const_1", "shape": [1], "dtype": "int32"}, {"name": "StatefulPartitionedCall/tf_distil_bert_for_sequence_classification/distilbert/transformer/layer_._0/attention/k_lin/Tensordot/ReadVariableOp", "shape": [768, 768], "dtype": "float32"}, {"name": "StatefulPartitionedCall/tf_distil_bert_for_sequence_classification/distilbert/transformer/layer_._0/attention/k_lin/Tensordot/free", "shape": [2], "dtype": "int32"}, {"name": "StatefulPartitionedCall/tf_distil_bert_for_sequence_classification/distilbert/transformer/layer_._0/attention/k_lin/Tensordot/GatherV2/axis", "shape": [], "dtype": "int32"}, {"name": "StatefulPartitionedCall/tf_distil_bert_for_sequence_classification/distilbert/transformer/layer_._0/attention/k_lin/Tensordot/Const_2", "shape": [1], "dtype": "int32"}, {"name": "StatefulPartitionedCall/tf_distil_bert_for_sequence_classification/distilbert/transformer/layer_._0/attention/k_lin/Tensordot/concat_1/axis", "shape": [], "dtype": "int32"}, {"name": "StatefulPartitionedCall/tf_distil_bert_for_sequence_classification/distilbert/transformer/layer_._0/attention/k_lin/BiasAdd/ReadVariableOp", "shape": [768], "dtype": "float32"}, {"name": "StatefulPartitionedCall/tf_distil_bert_for_sequence_classification/distilbert/transformer/layer_._0/attention/Reshape_1/shape/1", "shape": [], "dtype": "int32"}, {"name": "StatefulPartitionedCall/tf_distil_bert_for_sequence_classification/distilbert/transformer/layer_._0/attention/Reshape_1/shape/2", "shape": [], "dtype": "int32"}, {"name": "StatefulPartitionedCall/tf_distil_bert_for_sequence_classification/distilbert/transformer/layer_._0/attention/transpose_1/perm", "shape": [4], "dtype": "int32"}, {"name": "StatefulPartitionedCall/tf_distil_bert_for_sequence_classification/distilbert/transformer/layer_._0/attention/add/y", "shape": [], "dtype": "float32"}, {"name": "StatefulPartitionedCall/tf_distil_bert_for_sequence_classification/distilbert/transformer/layer_._0/attention/mul_1/x", "shape": [], "dtype": "float32"}, {"name": "StatefulPartitionedCall/tf_distil_bert_for_sequence_classification/distilbert/transformer/layer_._0/attention/sub/x", "shape": [], "dtype": "float32"}, {"name": "StatefulPartitionedCall/tf_distil_bert_for_sequence_classification/distilbert/transformer/layer_._0/attention/Reshape_3/shape/1", "shape": [], "dtype": "int32"}, {"name": "StatefulPartitionedCall/tf_distil_bert_for_sequence_classification/distilbert/transformer/layer_._0/attention/Reshape_3/shape/2", "shape": [], "dtype": "int32"}, {"name": "StatefulPartitionedCall/tf_distil_bert_for_sequence_classification/distilbert/transformer/layer_._0/attention/strided_slice_3/stack", "shape": [1], "dtype": "int32"}, {"name": "StatefulPartitionedCall/tf_distil_bert_for_sequence_classification/distilbert/transformer/layer_._0/attention/strided_slice_3/stack_1", "shape": [1], "dtype": "int32"}, {"name": "StatefulPartitionedCall/tf_distil_bert_for_sequence_classification/distilbert/transformer/layer_._0/attention/strided_slice_3/stack_2", "shape": [1], "dtype": "int32"}, {"name": "StatefulPartitionedCall/tf_distil_bert_for_sequence_classification/distilbert/transformer/layer_._0/attention/v_lin/Tensordot/Const", "shape": [1], "dtype": "int32"}, {"name": "StatefulPartitionedCall/tf_distil_bert_for_sequence_classification/distilbert/transformer/layer_._0/attention/v_lin/Tensordot/axes", "shape": [1], "dtype": "int32"}, {"name": "StatefulPartitionedCall/tf_distil_bert_for_sequence_classification/distilbert/transformer/layer_._0/attention/v_lin/Tensordot/GatherV2_1/axis", "shape": [], "dtype": "int32"}, {"name": "StatefulPartitionedCall/tf_distil_bert_for_sequence_classification/distilbert/transformer/layer_._0/attention/v_lin/Tensordot/Const_1", "shape": [1], "dtype": "int32"}, {"name": "StatefulPartitionedCall/tf_distil_bert_for_sequence_classification/distilbert/transformer/layer_._0/attention/v_lin/Tensordot/ReadVariableOp", "shape": [768, 768], "dtype": "float32"}, {"name": "StatefulPartitionedCall/tf_distil_bert_for_sequence_classification/distilbert/transformer/layer_._0/attention/v_lin/Tensordot/free", "shape": [2], "dtype": "int32"}, {"name": "StatefulPartitionedCall/tf_distil_bert_for_sequence_classification/distilbert/transformer/layer_._0/attention/v_lin/Tensordot/GatherV2/axis", "shape": [], "dtype": "int32"}, {"name": "StatefulPartitionedCall/tf_distil_bert_for_sequence_classification/distilbert/transformer/layer_._0/attention/v_lin/Tensordot/Const_2", "shape": [1], "dtype": "int32"}, {"name": "StatefulPartitionedCall/tf_distil_bert_for_sequence_classification/distilbert/transformer/layer_._0/attention/v_lin/Tensordot/concat_1/axis", "shape": [], "dtype": "int32"}, {"name": "StatefulPartitionedCall/tf_distil_bert_for_sequence_classification/distilbert/transformer/layer_._0/attention/v_lin/BiasAdd/ReadVariableOp", "shape": [768], "dtype": "float32"}, {"name": "StatefulPartitionedCall/tf_distil_bert_for_sequence_classification/distilbert/transformer/layer_._0/attention/Reshape_2/shape/1", "shape": [], "dtype": "int32"}, {"name": "StatefulPartitionedCall/tf_distil_bert_for_sequence_classification/distilbert/transformer/layer_._0/attention/Reshape_2/shape/2", "shape": [], "dtype": "int32"}, {"name": "StatefulPartitionedCall/tf_distil_bert_for_sequence_classification/distilbert/transformer/layer_._0/attention/Cast/x", "shape": [], "dtype": "int32"}, {"name": "StatefulPartitionedCall/tf_distil_bert_for_sequence_classification/distilbert/transformer/layer_._0/attention/transpose_2/perm", "shape": [4], "dtype": "int32"}, {"name": "StatefulPartitionedCall/tf_distil_bert_for_sequence_classification/distilbert/transformer/layer_._0/attention/transpose_3/perm", "shape": [4], "dtype": "int32"}, {"name": "StatefulPartitionedCall/tf_distil_bert_for_sequence_classification/distilbert/transformer/layer_._0/attention/strided_slice/stack", "shape": [1], "dtype": "int32"}, {"name": "StatefulPartitionedCall/tf_distil_bert_for_sequence_classification/distilbert/transformer/layer_._0/attention/strided_slice/stack_1", "shape": [1], "dtype": "int32"}, {"name": "StatefulPartitionedCall/tf_distil_bert_for_sequence_classification/distilbert/transformer/layer_._0/attention/strided_slice/stack_2", "shape": [1], "dtype": "int32"}, {"name": "StatefulPartitionedCall/tf_distil_bert_for_sequence_classification/distilbert/transformer/layer_._0/attention/Reshape_4/shape/1", "shape": [], "dtype": "int32"}, {"name": "StatefulPartitionedCall/tf_distil_bert_for_sequence_classification/distilbert/transformer/layer_._0/attention/mul_2", "shape": [], "dtype": "int32"}, {"name": "StatefulPartitionedCall/tf_distil_bert_for_sequence_classification/distilbert/transformer/layer_._0/attention/out_lin/Tensordot/free", "shape": [2], "dtype": "int32"}, {"name": "StatefulPartitionedCall/tf_distil_bert_for_sequence_classification/distilbert/transformer/layer_._0/attention/out_lin/Tensordot/GatherV2/axis", "shape": [], "dtype": "int32"}, {"name": "StatefulPartitionedCall/tf_distil_bert_for_sequence_classification/distilbert/transformer/layer_._0/attention/out_lin/Tensordot/Const_2", "shape": [1], "dtype": "int32"}, {"name": "StatefulPartitionedCall/tf_distil_bert_for_sequence_classification/distilbert/transformer/layer_._0/attention/out_lin/Tensordot/concat_1/axis", "shape": [], "dtype": "int32"}, {"name": "StatefulPartitionedCall/tf_distil_bert_for_sequence_classification/distilbert/transformer/layer_._0/attention/out_lin/BiasAdd/ReadVariableOp", "shape": [768], "dtype": "float32"}, {"name": "StatefulPartitionedCall/tf_distil_bert_for_sequence_classification/distilbert/embeddings/LayerNorm/batchnorm/ReadVariableOp", "shape": [768], "dtype": "float32"}, {"name": "unknown_0", "shape": [512, 768], "dtype": "float32"}, {"name": "StatefulPartitionedCall/tf_distil_bert_for_sequence_classification/distilbert/embeddings/range/start", "shape": [], "dtype": "int32"}, {"name": "unknown", "shape": [30522, 768], "dtype": "float32"}, {"name": "StatefulPartitionedCall/tf_distil_bert_for_sequence_classification/distilbert/embeddings/Gather/axis", "shape": [], "dtype": "int32"}, {"name": "StatefulPartitionedCall/tf_distil_bert_for_sequence_classification/distilbert/embeddings/strided_slice_1/stack", "shape": [1], "dtype": "int32"}, {"name": "StatefulPartitionedCall/tf_distil_bert_for_sequence_classification/distilbert/embeddings/strided_slice_1/stack_1", "shape": [1], "dtype": "int32"}, {"name": "StatefulPartitionedCall/tf_distil_bert_for_sequence_classification/distilbert/embeddings/strided_slice_1/stack_2", "shape": [1], "dtype": "int32"}, {"name": "StatefulPartitionedCall/tf_distil_bert_for_sequence_classification/distilbert/embeddings/range/delta", "shape": [], "dtype": "int32"}, {"name": "StatefulPartitionedCall/tf_distil_bert_for_sequence_classification/distilbert/embeddings/ExpandDims/dim", "shape": [], "dtype": "int32"}, {"name": "StatefulPartitionedCall/tf_distil_bert_for_sequence_classification/distilbert/embeddings/Gather_1/axis", "shape": [], "dtype": "int32"}, {"name": "StatefulPartitionedCall/tf_distil_bert_for_sequence_classification/distilbert/embeddings/LayerNorm/moments/mean/reduction_indices", "shape": [1], "dtype": "int32"}, {"name": "StatefulPartitionedCall/tf_distil_bert_for_sequence_classification/distilbert/embeddings/LayerNorm/moments/variance/reduction_indices", "shape": [1], "dtype": "int32"}, {"name": "StatefulPartitionedCall/tf_distil_bert_for_sequence_classification/distilbert/embeddings/LayerNorm/batchnorm/add/y", "shape": [], "dtype": "float32"}, {"name": "StatefulPartitionedCall/tf_distil_bert_for_sequence_classification/distilbert/embeddings/LayerNorm/batchnorm/mul/ReadVariableOp", "shape": [768], "dtype": "float32"}, {"name": "StatefulPartitionedCall/tf_distil_bert_for_sequence_classification/distilbert/transformer/layer_._0/sa_layer_norm/moments/mean/reduction_indices", "shape": [1], "dtype": "int32"}, {"name": "StatefulPartitionedCall/tf_distil_bert_for_sequence_classification/distilbert/transformer/layer_._0/sa_layer_norm/moments/variance/reduction_indices", "shape": [1], "dtype": "int32"}, {"name": "StatefulPartitionedCall/tf_distil_bert_for_sequence_classification/distilbert/transformer/layer_._0/sa_layer_norm/batchnorm/add/y", "shape": [], "dtype": "float32"}, {"name": "StatefulPartitionedCall/tf_distil_bert_for_sequence_classification/distilbert/transformer/layer_._0/sa_layer_norm/batchnorm/mul/ReadVariableOp", "shape": [768], "dtype": "float32"}, {"name": "StatefulPartitionedCall/tf_distil_bert_for_sequence_classification/distilbert/transformer/layer_._0/output_layer_norm/moments/mean/reduction_indices", "shape": [1], "dtype": "int32"}, {"name": "StatefulPartitionedCall/tf_distil_bert_for_sequence_classification/distilbert/transformer/layer_._0/output_layer_norm/moments/variance/reduction_indices", "shape": [1], "dtype": "int32"}, {"name": "StatefulPartitionedCall/tf_distil_bert_for_sequence_classification/distilbert/transformer/layer_._0/output_layer_norm/batchnorm/add/y", "shape": [], "dtype": "float32"}, {"name": "StatefulPartitionedCall/tf_distil_bert_for_sequence_classification/distilbert/transformer/layer_._0/output_layer_norm/batchnorm/mul/ReadVariableOp", "shape": [768], "dtype": "float32"}, {"name": "StatefulPartitionedCall/tf_distil_bert_for_sequence_classification/distilbert/transformer/layer_._1/sa_layer_norm/moments/mean/reduction_indices", "shape": [1], "dtype": "int32"}, {"name": "StatefulPartitionedCall/tf_distil_bert_for_sequence_classification/distilbert/transformer/layer_._1/sa_layer_norm/moments/variance/reduction_indices", "shape": [1], "dtype": "int32"}, {"name": "StatefulPartitionedCall/tf_distil_bert_for_sequence_classification/distilbert/transformer/layer_._1/sa_layer_norm/batchnorm/add/y", "shape": [], "dtype": "float32"}, {"name": "StatefulPartitionedCall/tf_distil_bert_for_sequence_classification/distilbert/transformer/layer_._1/sa_layer_norm/batchnorm/mul/ReadVariableOp", "shape": [768], "dtype": "float32"}, {"name": "StatefulPartitionedCall/tf_distil_bert_for_sequence_classification/distilbert/transformer/layer_._1/output_layer_norm/moments/mean/reduction_indices", "shape": [1], "dtype": "int32"}, {"name": "StatefulPartitionedCall/tf_distil_bert_for_sequence_classification/distilbert/transformer/layer_._1/output_layer_norm/moments/variance/reduction_indices", "shape": [1], "dtype": "int32"}, {"name": "StatefulPartitionedCall/tf_distil_bert_for_sequence_classification/distilbert/transformer/layer_._1/output_layer_norm/batchnorm/add/y", "shape": [], "dtype": "float32"}, {"name": "StatefulPartitionedCall/tf_distil_bert_for_sequence_classification/distilbert/transformer/layer_._1/output_layer_norm/batchnorm/mul/ReadVariableOp", "shape": [768], "dtype": "float32"}, {"name": "StatefulPartitionedCall/tf_distil_bert_for_sequence_classification/distilbert/transformer/layer_._2/sa_layer_norm/moments/mean/reduction_indices", "shape": [1], "dtype": "int32"}, {"name": "StatefulPartitionedCall/tf_distil_bert_for_sequence_classification/distilbert/transformer/layer_._2/sa_layer_norm/moments/variance/reduction_indices", "shape": [1], "dtype": "int32"}, {"name": "StatefulPartitionedCall/tf_distil_bert_for_sequence_classification/distilbert/transformer/layer_._2/sa_layer_norm/batchnorm/add/y", "shape": [], "dtype": "float32"}, {"name": "StatefulPartitionedCall/tf_distil_bert_for_sequence_classification/distilbert/transformer/layer_._2/sa_layer_norm/batchnorm/mul/ReadVariableOp", "shape": [768], "dtype": "float32"}, {"name": "StatefulPartitionedCall/tf_distil_bert_for_sequence_classification/distilbert/transformer/layer_._2/output_layer_norm/moments/mean/reduction_indices", "shape": [1], "dtype": "int32"}, {"name": "StatefulPartitionedCall/tf_distil_bert_for_sequence_classification/distilbert/transformer/layer_._2/output_layer_norm/moments/variance/reduction_indices", "shape": [1], "dtype": "int32"}, {"name": "StatefulPartitionedCall/tf_distil_bert_for_sequence_classification/distilbert/transformer/layer_._2/output_layer_norm/batchnorm/add/y", "shape": [], "dtype": "float32"}, {"name": "StatefulPartitionedCall/tf_distil_bert_for_sequence_classification/distilbert/transformer/layer_._2/output_layer_norm/batchnorm/mul/ReadVariableOp", "shape": [768], "dtype": "float32"}, {"name": "StatefulPartitionedCall/tf_distil_bert_for_sequence_classification/distilbert/transformer/layer_._3/sa_layer_norm/moments/mean/reduction_indices", "shape": [1], "dtype": "int32"}, {"name": "StatefulPartitionedCall/tf_distil_bert_for_sequence_classification/distilbert/transformer/layer_._3/sa_layer_norm/moments/variance/reduction_indices", "shape": [1], "dtype": "int32"}, {"name": "StatefulPartitionedCall/tf_distil_bert_for_sequence_classification/distilbert/transformer/layer_._3/sa_layer_norm/batchnorm/add/y", "shape": [], "dtype": "float32"}, {"name": "StatefulPartitionedCall/tf_distil_bert_for_sequence_classification/distilbert/transformer/layer_._3/sa_layer_norm/batchnorm/mul/ReadVariableOp", "shape": [768], "dtype": "float32"}, {"name": "StatefulPartitionedCall/tf_distil_bert_for_sequence_classification/distilbert/transformer/layer_._3/output_layer_norm/moments/mean/reduction_indices", "shape": [1], "dtype": "int32"}, {"name": "StatefulPartitionedCall/tf_distil_bert_for_sequence_classification/distilbert/transformer/layer_._3/output_layer_norm/moments/variance/reduction_indices", "shape": [1], "dtype": "int32"}, {"name": "StatefulPartitionedCall/tf_distil_bert_for_sequence_classification/distilbert/transformer/layer_._3/output_layer_norm/batchnorm/add/y", "shape": [], "dtype": "float32"}, {"name": "StatefulPartitionedCall/tf_distil_bert_for_sequence_classification/distilbert/transformer/layer_._3/output_layer_norm/batchnorm/mul/ReadVariableOp", "shape": [768], "dtype": "float32"}, {"name": "StatefulPartitionedCall/tf_distil_bert_for_sequence_classification/distilbert/transformer/layer_._4/sa_layer_norm/moments/mean/reduction_indices", "shape": [1], "dtype": "int32"}, {"name": "StatefulPartitionedCall/tf_distil_bert_for_sequence_classification/distilbert/transformer/layer_._4/sa_layer_norm/moments/variance/reduction_indices", "shape": [1], "dtype": "int32"}, {"name": "StatefulPartitionedCall/tf_distil_bert_for_sequence_classification/distilbert/transformer/layer_._4/sa_layer_norm/batchnorm/add/y", "shape": [], "dtype": "float32"}, {"name": "StatefulPartitionedCall/tf_distil_bert_for_sequence_classification/distilbert/transformer/layer_._4/sa_layer_norm/batchnorm/mul/ReadVariableOp", "shape": [768], "dtype": "float32"}, {"name": "StatefulPartitionedCall/tf_distil_bert_for_sequence_classification/distilbert/transformer/layer_._4/output_layer_norm/moments/mean/reduction_indices", "shape": [1], "dtype": "int32"}, {"name": "StatefulPartitionedCall/tf_distil_bert_for_sequence_classification/distilbert/transformer/layer_._4/output_layer_norm/moments/variance/reduction_indices", "shape": [1], "dtype": "int32"}, {"name": "StatefulPartitionedCall/tf_distil_bert_for_sequence_classification/distilbert/transformer/layer_._4/output_layer_norm/batchnorm/add/y", "shape": [], "dtype": "float32"}, {"name": "StatefulPartitionedCall/tf_distil_bert_for_sequence_classification/distilbert/transformer/layer_._4/output_layer_norm/batchnorm/mul/ReadVariableOp", "shape": [768], "dtype": "float32"}, {"name": "StatefulPartitionedCall/tf_distil_bert_for_sequence_classification/distilbert/transformer/layer_._5/sa_layer_norm/moments/mean/reduction_indices", "shape": [1], "dtype": "int32"}, {"name": "StatefulPartitionedCall/tf_distil_bert_for_sequence_classification/distilbert/transformer/layer_._5/sa_layer_norm/moments/variance/reduction_indices", "shape": [1], "dtype": "int32"}, {"name": "StatefulPartitionedCall/tf_distil_bert_for_sequence_classification/distilbert/transformer/layer_._5/sa_layer_norm/batchnorm/add/y", "shape": [], "dtype": "float32"}, {"name": "StatefulPartitionedCall/tf_distil_bert_for_sequence_classification/distilbert/transformer/layer_._5/sa_layer_norm/batchnorm/mul/ReadVariableOp", "shape": [768], "dtype": "float32"}, {"name": "StatefulPartitionedCall/tf_distil_bert_for_sequence_classification/distilbert/transformer/layer_._5/output_layer_norm/moments/mean/reduction_indices", "shape": [1], "dtype": "int32"}, {"name": "StatefulPartitionedCall/tf_distil_bert_for_sequence_classification/distilbert/transformer/layer_._5/output_layer_norm/moments/variance/reduction_indices", "shape": [1], "dtype": "int32"}, {"name": "StatefulPartitionedCall/tf_distil_bert_for_sequence_classification/distilbert/transformer/layer_._5/output_layer_norm/batchnorm/add/y", "shape": [], "dtype": "float32"}, {"name": "StatefulPartitionedCall/tf_distil_bert_for_sequence_classification/distilbert/transformer/layer_._5/output_layer_norm/batchnorm/mul/ReadVariableOp", "shape": [768], "dtype": "float32"}, {"name": "StatefulPartitionedCall/tf_distil_bert_for_sequence_classification/strided_slice/stack", "shape": [2], "dtype": "int32"}, {"name": "StatefulPartitionedCall/tf_distil_bert_for_sequence_classification/strided_slice/stack_1", "shape": [2], "dtype": "int32"}, {"name": "StatefulPartitionedCall/tf_distil_bert_for_sequence_classification/strided_slice/stack_2", "shape": [2], "dtype": "int32"}, {"name": "StatefulPartitionedCall/tf_distil_bert_for_sequence_classification/pre_classifier/MatMul/ReadVariableOp", "shape": [768, 768], "dtype": "float32"}, {"name": "StatefulPartitionedCall/tf_distil_bert_for_sequence_classification/classifier/MatMul/ReadVariableOp", "shape": [768, 2], "dtype": "float32"}, {"name": "StatefulPartitionedCall/tf_distil_bert_for_sequence_classification/classifier/BiasAdd/ReadVariableOp", "shape": [2], "dtype": "float32"}]}]}